model_save/params_20240807_120011.pth (torch, 92275 bytes, 18 tensors)

fc1.weight f4 [300, 13]
00000000: 56ca 9bbd c55c 893e 703d 31bd 94a7 0dbe
00000010: 54a2 de3d 9409 24be 6acd 8ebd b099 60bd
00000020: 3978 49be 6eba 14be c79d 36be 907b b43c
00000030: e51c 873e d195 2abf d348 393f 09b5 cd3d
00000040: a1b1 dbbe c3af a03f 36f7 c7be ae78 7abe
00000050: b64c 54bf 69b4 c3be 73cf 92bc 6341 8ebf
00000060: ac66 083d 7018 423e 4c5e 033e 326e 0dbc
00000070: 91f0 16be d82a 00be 73de f53d 2543 36be
00000080: 7216 343e 64ec 383e 635e 823e 2511 a2bc
00000090: cff0 44be d139 09be 0fcb 12be 41fc 523d
000000a0: 4c36 0dbe 0c27 44bd 2869 64be 8db9 2fbe
000000b0: b085 8ebd bb2a 10bd 1435 6b3e 5585 563d
000000c0: 0b74 023e dc50 e9bd 1b22 fabd 40f6 3dbc
000000d0: f2d7 ebbe 60aa e6bd 7122 903e 5e3a 19bf
000000e0: 987c 2abf f064 a5be 060e adbe 1ab9 583e
000000f0: 6b7f 44be d60e 103b c3f4 b53e 2be2 b5bc
00000100: ccc3 823d 2e4e f0be f593 ff3d c9c0 a93e
00000110: 152e 14bf aebd d73d 79a6 873d 475f acbe
00000120: 8814 1c3d 7169 2fbf b678 49be 2915 09be
00000130: 78a4 1abf 6a50 f2bd cbec 2bbc 0d7f 3cbe
00000140: b851 e63e 6228 683d 8b4a e1bc af6f 6cbe
00000150: fe3c 0bbe 4b44 a23d fe16 d7be 6276 c8bd
00000160: 3ca6 e03e 5169 813c 9c24 7dbe a097 3d3c
00000170: 0c1c f93d 20b3 7a3d fcdf 3f3e b7a7 03be
00000180: be83 3fbe 3383 6cbe 8b73 1ebe 7b3f 71be
00000190: 3478 fdbd 46bf 48be 5cb0 c4bd f5e5 873e
000001a0: 02b8 62be 3d9d e0be 64c3 773f 3dc8 dcbe
000001b0: a9f3 e1bd 1a96 22bf ff27 9d3d 092d 0d3f
000001c0: 63af b7be 21cc fd3d 4a27 8e3e 93d4 a43e
000001d0: 6a73 a8bd 628a d03d ccd2 a93d 6c7e 0b3d
000001e0: 6813 50bc 1f89 c83d c841 7abe d1bc a43d
000001f0: 9315 c8bd e9f3 d43d 551d e6bc 0a98 033e
00000200: 9c50 753d f8aa fc3d e0d5 f43d 5273 683e
00000210: cc16 8dbe 86ba 713e 8299 f3bd 109c 5d3d
00000220: 2a4d 5fbe 53e1 87be 2fdb 17be 8dd4 85be
00000230: f667 133e 4088 d53d 5ad7 adbd 4ca3 07bd
00000240: e0ca 51bc 6a43 493e 802a 7cbc 76bb ddbd
00000250: b728 5abe 7cdb 9a3d 6073 9d3c 6258 073e
00000260: 1c4c 8fbd 18c5 f2bd d42d ebbd 30c0 013d
00000270: 0234 083f e657 36bf 83a3 fabe 3379 8d3e
00000280: 0b12 fbbe 15dd 33be ff32 a7be 8874 b53e
00000290: f586 843d fa23 2dbe ebbe c43e 9b7a 59be
000002a0: a0cf 2bbc ed4c b93e 8b6b 22bf 1fff 46be
000002b0: d13f 0cbe 630b a9bf 8dd6 643c 5989 9cbe
000002c0: 1794 de3e cc48 c03d 850c cbbd 1420 a23f
000002d0: 323d 68bd 7cde 4abe dea8 31bf da88 f8bd
000002e0: 1c89 14bd 6169 d7be 0462 60bf 157c febe
000002f0: daeb bcbd e6c1 423e 56fc 0e3e 0dad 10be
00000300: a207 653f 5d4a 433e 844e da3d 14da 1c3c
00000310: c48c 023c 5c70 263e 6722 abbd 105c e9bc
00000320: e87d 81be f533 94bc b91c 0fbe 6806 46be
00000330: 6b2d a1be 57cb 383e a0c4 793e 086b a03d
00000340: 2db1 113f b47e 573f 097b 3e3f 0e62 d13c
00000350: 9795 6fbf 3b9f 6bbd 9b72 32be d9e6 8dbf
00000360: 09e8 08bf b08e 8f3e 44f5 203f 36a0 69be
00000370: e01c 393e 5adb 033f 1ca9 233f c8b7 373f
00000380: 1f70 903e 73a6 cabd d0f3 083e a8bd 49be
00000390: 47a8 5dbe 9373 03bf 93b8 27bf 90f9 a5bc
000003a0: 7e82 d6bd b8d5 5cbe 559b 84bd 2366 433f
000003b0: 7d3e 7ebe 3961 e5bc 9fe8 a03f 7b6c 47bc
000003c0: 3b99 7abd 3fa4 1abf a120 ec3c 948e 4fbe
000003d0: 5df0 7abf ebc6 97bd bcde 20be 2f66 2b3f
000003e0: 69d5 fb3c 5770 89be 9165 d83d c24f 2dbf
000003f0: d5d7 1abe aaf7 1bbe b26e 1ebd 610b db3a
-0.07606952 0.2682859 -0.043271482 -0.13833457 0.108708054 -0.16019279 -0.069727734 -0.054834068
-0.19674768 -0.14524242 -0.17833625 0.022031575 0.26389232 -0.6663485 0.72376746 0.10044295
-0.42908958 1.2553638 -0.39055794 -0.24460098 -0.8292955 -0.3822358 -0.017921185 -1.1113704
0.03330104 0.18954635 0.1282894 -0.00863223 -0.14740206 -0.12516344 0.120053194 -0.17799051
0.17586687 0.18058926 0.25462636 -0.019783566 -0.19232486 -0.13400961 -0.14335273 0.0515101
-0.13790244 -0.0478888 -0.22305739 -0.17160626 -0.069590926 -0.035197 0.22969466 0.05237325
0.1273958 -0.11392376 -0.12213536 -0.011594355 -0.4606319 -0.11262965 0.28151277 -0.59854686
-0.66596365 -0.32303572 -0.33799762 0.2116436 -0.19189231 0.00219815 0.355383 -0.022202572
0.063850015 -0.46934646 0.124793924 0.33154896 -0.57882816 0.105342254 0.06623549 -0.3366644
0.038105518 -0.68520266 -0.19674954 -0.13386978 -0.6040721 -0.11831744 -0.010493468 -0.18407841
0.4498422 0.056679137 -0.027501365 -0.23089479 -0.13597485 0.07923182 -0.4200973 -0.09788205
0.43876827 0.01579729 -0.24720997 0.011571795 0.12163553 0.061205983 0.18737787 -0.12856947
-0.187026 -0.23096924 -0.15473764 -0.23559372 -0.123764426 -0.19604215 -0.096039504 0.2654263
-0.22140506 -0.43869963 0.9678252 -0.4312152 -0.110328026 -0.63510287 0.07673644 0.55146843
-0.35875997 0.1239245 0.2776435 0.3219343 -0.082251385 0.101826444 0.082921594 0.034056112
-0.012699939 0.09791779 -0.24439156 0.08043826 -0.0976974 0.10398085 -0.028090158 0.12850967
0.05989133 0.12337297 0.11954856 0.22700241 -0.27556455 0.2360631 -0.11894514 0.05410391
-0.2180678 -0.26539096 -0.14829706 -0.26138726 0.14395127 0.10426378 -0.08488341 -0.033114716
-0.012804717 0.19654623 -0.015390992 -0.10826771 -0.21304594 0.075613946 0.019220054 0.13217309
-0.069969386 -0.11853999 -0.114833504 0.031677425 0.5320436 -0.7122787 -0.48952875 0.2763153
-0.49037203 -0.17564805 -0.32656094 0.3544047 0.064710535 -0.16908255 0.3842691 -0.21238177
-0.010486513 0.36191502 -0.6344535 -0.19433258 -0.13696219 -1.32066 0.0139671685 -0.30573538
0.4347236 0.09388885 -0.09914497 1.266604 -0.056698985 -0.19811434 -0.69398296 -0.12135477
-0.03626357 -0.42072585 -0.8764956 -0.49704042 -0.092246726 0.19019279 0.13963446 -0.14128514
0.8946477 0.19071336 0.10659507 0.009573478 0.007968131 0.16253799 -0.08356171 -0.028486282
-0.2529137 -0.018091181 -0.139758 -0.19338381 -0.31479964 0.18046318 0.24391413 0.078329146
0.56910974 0.8417771 0.74406487 0.025559451 -0.9358763 -0.0575249 -0.17426531 -1.1086074
-0.5347906 0.2803855 0.62874246 -0.22815022 0.18077421 0.5150658 0.63929915 0.717648
0.28210542 -0.09895029 0.13374257 -0.19701254 -0.21646224 -0.5134823 -0.6551601 -0.020260602
-0.10474108 -0.21565902 -0.0647494 0.76327723 -0.24828525 -0.028000461 1.257099 -0.01217186
-0.06118129 -0.6040687 0.028824152 -0.20269233 -0.98023015 -0.074109875 -0.15709966 0.66952795
0.03074141 -0.2684352 0.10566247 -0.67699826 -0.15121396 -0.15231195 -0.038679786 0.0016711765

fc1.bias f4 [300]
00000000: fead 79be 8fe5 85be 0dc1 39be fa89 2abe
00000010: 69a1 ddbd e022 06be b8f9 d4bd 3975 20be
00000020: 197c 50be eda4 20be b186 15be 4279 bdbd
00000030: b08a 403e febd 493d 656f 22be c985 8bbd
00000040: 3ba1 d83c 1c08 61bd 5d4f 36be 32bd 6dbd
00000050: 1c53 16be 6606 52be c150 083d 6ba8 c6bd
00000060: 856c 6abe 6058 4a3e deb1 86be 65ff 1ebc
00000070: 0034 09bd 3dde 6bbe 81fd 3e3e 76ad 1cbe
00000080: 90e6 58bd 5c6e d6bd 653b bebd 73b8 55be
00000090: c358 60be 3bcf 9cbe 7e65 55be 401d 4fbe
000000a0: 1eff 37be 8be3 6abe 3811 a2bd 60a2 343e
000000b0: f225 8ebd 5af9 bfbe 017f 81bc 786f 2fbe
000000c0: 94c0 2abe 7fbe 523c 1ca1 50be b81f dfbd
000000d0: 46f9 2ebe 3dac 85be f6c0 e53d 0b3f c1bd
000000e0: f804 d13c 5e05 89bd e61f 7abe 9098 25be
000000f0: 10da 5dbe fd16 2fbe 96b1 aabd 76da b8bd
00000100: 7263 3fbe 1193 72be 9d96 13be e5c8 86be
00000110: a440 7abe d16f 46be 8496 db3b 2083 61be
00000120: 4272 1fbe cc04 bbbd 19d7 60be 9446 5fbe
00000130: 35b9 74be 68f8 87bd e754 43be 507f 2cbe
00000140: 7fd5 6dbe d591 26be 8ff9 5abe c7af 0f3d
00000150: 7af2 22be f756 0ebe b5aa 91bd 2a8b 68be
00000160: 1a70 f2bd 2ac4 4ebe 8ad1 0b3d aeb4 cbbd
00000170: 1817 45be d420 1bbc 0537 69bd 0f0d 7fbd
00000180: aff9 6dbe 979a 86bd 253d e7bc 4b49 2ebe
00000190: ab02 64be 66d0 2b3e 706e 2abe 5a4e 9abd
000001a0: c8b1 65be bc40 29be 20ac 4ebe 1e8d f2bd
000001b0: 6f6f a1bd 51b0 1d3d 02b6 dbbd 21b9 50be
000001c0: 2711 a2be 1c1b 20be 66bc b7bd e9a8 90bc
000001d0: b430 e0bd 4fdb 78be 9591 eabd 3f71 21be
000001e0: d0a6 a5bd 0e31 6ebe b57f 1d3d fe5e acbd
000001f0: b654 3cbc 1791 44be d75b 8abe f964 7dbe
00000200: 0875 8abe 6d84 6cbe 243d 6fbe 57ee b4bd
00000210: b887 4ebd 24f4 66ba 9179 10be 2030 1dbe
00000220: efa3 0fbe e917 183d 96fd 62be 0812 61be
00000230: 379d 26be 04c9 8c3a fdc9 11be 1031 c1bd
00000240: c785 13bd e75d 5fbe 4edc bfbd f14e 34be
00000250: eab4 8fbe a27e 64be 0436 eabd d93a 73be
00000260: c6eb 42be cee2 50be 0b99 51be ed46 0bbd
00000270: 88ce 613c 1602 1bbe 0ea4 8ebd fb11 013d
00000280: 262b 41be 74be 71be fb4d acbd ecd3 68bd
00000290: 4716 bdbd 3af4 15be c7ed 1fbe 824a a0be
000002a0: 5056 9d3d a172 8b3d 2d01 73be a001 51bd
000002b0: 0b31 f4bd 5525 6f3e 4ee1 62be 1884 33be
000002c0: 66b0 57be 2fcc 71be 9f4f 7cbe 3747 54be
000002d0: da50 51be 658f 42be af91 7bbe 24d2 94bd
000002e0: 489e b93d 9689 acbe d246 83be aa18 7fbe
000002f0: 0672 b0bd c3f3 f8bd 0ac5 e5be 309e 4dbe
00000300: b439 8ebe 0a2a 553d 849c b1bd 9aa2 42be
00000310: 4290 5bbe e797 c0bd a429 16be e5fc ecbd
00000320: e30b 00be 5309 a13d 703c 68be fb4b 263e
00000330: 23e4 083e 7502 b9bb 6407 9abd 7cda f5bd
00000340: 71bb 1fbe 557f eabd 9079 77be 86c7 cc3d
00000350: c793 9ebc 4294 01be b085 a9be 8e95 83be
00000360: 28de 08be 6a08 45be c303 9fbd bc26 e5bd
00000370: 3e37 cabd 6064 79bc 2b35 3b3d b2d3 c73d
00000380: fc3a c1bd ee4d 0cbe b2dd 51be 965f f2bd
00000390: efc1 09be 3bfc 5bbd 3dd6 1dbd 930a 8abd
000003a0: 149d 2bbe 4da3 c2bc df64 29be 2917 3abe
000003b0: 0639 5cbe 3ba5 8cbd 29f5 e0bc 0a65 9bbd
000003c0: d247 45be a938 2fbe 8780 cbbd cb80 febc
000003d0: 1db9 dcbc 43ee 2bbd de03 0abd 6dbf 1bbe
000003e0: 3c6c 19be 4232 12be 3eda a8bd 3f52 b2bd
000003f0: 50be cf3d a193 e5bd 9b77 94be 586c 2cbe
-0.24382779 -0.26151702 -0.1814005 -0.16654196 -0.10821802 -0.13099241 -0.103991926 -0.15669717
-0.2035984 -0.15687914 -0.14602162 -0.09251644 0.18802905 0.049253456 -0.15862806 -0.06812627
0.026444068 -0.054939374 -0.17803712 -0.05804176 -0.14680141 -0.20510253 0.033280138 -0.09700092
-0.2289296 0.19760275 -0.26307577 -0.0097044455 -0.033496857 -0.23033996 0.18651392 -0.15300545
-0.052954257 -0.10470268 -0.09288672 -0.20871143 -0.2190886 -0.30626854 -0.20839497 -0.20226002
-0.17968413 -0.22938363 -0.079134405 0.17640066 -0.06940831 -0.37494928 -0.01580763 -0.17132366
-0.16675025 0.012862801 -0.20373958 -0.10894722 -0.17087278 -0.2610797 0.11218445 -0.094358526
0.025515065 -0.06690477 -0.24426231 -0.16171479 -0.21665215 -0.17098613 -0.08334653 -0.09026043
-0.18690279 -0.23688914 -0.14412923 -0.26325145 -0.24438721 -0.19378592 0.0067012925 -0.22022676
-0.1557093 -0.09131774 -0.21957053 -0.21804267 -0.23898776 -0.066391766 -0.19075356 -0.16845441
-0.23225974 -0.16266568 -0.21384262 0.035079744 -0.1591281 -0.13900362 -0.07112638 -0.22709337
-0.11837788 -0.20192018 0.03413538 -0.09946571 -0.19247091 -0.009468276 -0.056937236 -0.062268313
-0.23239778 -0.065724544 -0.028227398 -0.17020147 -0.22266643 0.16778716 -0.16643691 -0.075344756
-0.224311 -0.165286 -0.20182848 -0.11843322 -0.078825824 0.038498227 -0.107280746 -0.20383121
-0.3165371 -0.15635341 -0.08971481 -0.017658668 -0.109467894 -0.2430241 -0.11453549 -0.15765856
-0.080884576 -0.232609 0.03845187 -0.08416556 -0.011494806 -0.19195972 -0.27023193 -0.2474555
-0.27042413 -0.23097391 -0.23363167 -0.08834522 -0.0504224 -0.00088101835 -0.14108874 -0.1535039
-0.1402738 0.037132178 -0.22167048 -0.21979535 -0.1627091 0.001074106 -0.14237209 -0.09433186
-0.036016252 -0.21813165 -0.09368192 -0.17608239 -0.28067714 -0.22313932 -0.11436084 -0.23752917
-0.19035253 -0.20399019 -0.20468538 -0.034003187 0.013782151 -0.15137514 -0.06964885 0.031511288
-0.18864116 -0.23607808 -0.08413311 -0.05684273 -0.09232765 -0.14643946 -0.15618049 -0.31306845
0.076824784 0.06808973 -0.23730917 -0.05102694 -0.11923417 0.23354085 -0.2215626 -0.17530859
-0.21063384 -0.23613046 -0.24639748 -0.20730291 -0.20440999 -0.19000013 -0.24567293 -0.07266644
0.09063393 -0.3369872 -0.2563997 -0.24911752 -0.08615498 -0.12155869 -0.4487689 -0.20079875
-0.277784 0.052042045 -0.08672431 -0.1900734 -0.21441749 -0.09403973 -0.14664322 -0.11571673
-0.12504534 0.078631066 -0.22679305 0.16239922 0.13368277 -0.005646045 -0.07520941 -0.12004563
-0.15598847 -0.11450068 -0.24167466 0.099989936 -0.019357575 -0.12654212 -0.33109808 -0.2570004
-0.13365996 -0.19241491 -0.07764389 -0.111890286 -0.09873818 -0.015221685 0.045705 0.097571746
-0.094350785 -0.13701603 -0.20494726 -0.11834638 -0.13452886 -0.053707343 -0.03853439 -0.06740298
-0.1675914 -0.023759509 -0.16542386 -0.18172897 -0.21506128 -0.06867453 -0.027460651 -0.07587631
-0.19265679 -0.17111458 -0.09936624 -0.031067273 -0.026943738 -0.04197527 -0.033695094 -0.15209742
-0.14982694 -0.14276984 -0.082447514 -0.087070934 0.10143721 -0.112097986 -0.28997502 -0.16838205

fc2.weight f4 [3, 300]
00000000: 9afd d7bc a169 3a3f 0dc3 7b3c 6d02 2fbc
00000010: 1968 a9be 71f0 1b3d 239f 863d 4eaa 86bc
00000020: 820c 39bf 60a5 1a3d 5196 3fbd d050 16bd
00000030: 425e ac3e 5040 853e adbe 64be 8637 e43c
00000040: ff38 083f e6be 04bc 41cd f9be 2c69 9cbe
00000050: fbbe c23c 44c7 2abc 67f9 8e3e 350a aabb
00000060: fcd7 1ebd a05e 9fbe 60d8 dabe f478 e73e
00000070: ba4d 093d 50a5 8abe a790 a13d ea97 0d3d
00000080: 5ea0 7bbd d55a 2cbe 9bd8 73bb 9c8c 583d
00000090: c2f8 e1bc e406 b63d 3032 0d3d b81b e3bc
000000a0: 3e84 003f c174 3f3b d1d7 85bd 4dda fabe
000000b0: 4308 f83c 55c1 183f 5520 ae3b cd4c 243f
000000c0: 0c7b 983c 4fe2 703f 9fb8 4abd 2462 fc3e
000000d0: f178 51bd 0854 5e3c f541 a93e 5197 00bf
000000e0: 7e1f a83c d42a 07bd 482d 3dbe 24ef 323d
000000f0: 5a7e 523d 5843 7bbf 5d14 1d3e d9bd ce3e
00000100: cde1 4cbe 41e8 57be 6e4a 13bd 589b 353d
00000110: f077 303d c03f 2abd 390d 9b3e 763d 76bd
00000120: 9774 b6bd e411 6abc 4e3a 343d ba54 1f3d
00000130: 2e38 783d 760d 2e3d ea61 1bbf 5058 1bbc
00000140: 188e 2cbe 933a 07bf 7345 863d d579 233e
00000150: 9392 81be acfe 0d3d 7cc1 ec3e 4be8 723e
00000160: 06d0 53bb f2cd 543e 6a9f c73e fd11 1abe
00000170: 587f 33bc d3ed 4a3f 9a42 a43c 3c86 223c
00000180: 2088 493b 5fc5 7fbf 34cf 93be ec1f 5b3d
00000190: 1e9f 11bd a7ac 123d 8808 1e3c 715a 353d
000001a0: 90c7 ab3b 44ce cabc 7cdb 5cbf 8576 d3bc
000001b0: b2ab 00be 3a92 09be fe97 003d 705a 103f
000001c0: bdf7 acbe 9833 323f 8926 573f 50ab 073f
000001d0: 1862 c93b 0177 3bbf fac1 3a3d 25d4 603d
000001e0: 680d 663c 803a a53b df0b 8cbe ad91 84bd
000001f0: 432e d23d 86ac 193f b878 8b3c 3036 a63b
00000200: de7e 4ebd c1ea f73e 7cc2 09bc 7cc0 5a3e
00000210: a436 6cbe 61ac 813d edf3 3ebd c26d 2e3f
00000220: 5033 103c fed5 123e c045 543c f4b0 533f
00000230: 0e16 a13e f6bd 6dbd bc45 b1bc b52e 563c
00000240: fd90 94bb 5886 c8bb b20c 1c3f 3c02 573d
00000250: 926a 053f 7e39 dabc 2da8 a03e 7be9 65bd
00000260: 6911 4bbd 687a 1b3c bb12 ddbd a3c4 f9bd
00000270: 2b74 213e 28f8 07be 42df 333f 9a72 ff3e
00000280: 8028 003c dcb3 253d 7334 063d ac76 1cbd
00000290: e6d7 5ebd 924e d7bd 6b6e 993c fc80 7bbf
000002a0: 05d2 73be 6cce d73e d86d 093d 949b 9e3c
000002b0: 7405 0e3c 7ba4 a0be 0482 4bbd 96a7 d3ba
000002c0: 6cef 5dbd 58c8 8e3b 70ed 1c3b 40d5 c0bc
000002d0: e01d 583c 88ef ad3e 1db8 8c3d c03f 1c3d
000002e0: 3be8 ce3c c36c 22bf 98de 123c c0e0 623d
000002f0: 2620 02bf ce1e e4be 3203 123f 523b 36bd
00000300: 0b94 d7bc 0efe 9abe cc38 2e3d 8735 3fbf
00000310: 06f5 533d dbb0 96be 466f 1f3d 1ced 3a3f
00000320: 6305 b33c cf2f e83d f2fe 04bd ece4 8f3e
00000330: cf4d 8e3e 5d01 97be efb4 623c f23c 903e
00000340: fa2b 2b3d 5a09 e43d 873c f53c 7583 cc3e
00000350: 86e5 16bd 198c 0cbf 8aef 3bbe c0a8 e9bc
00000360: 5ac1 22bf be56 62bd 9375 2abd 6ec2 c83d
00000370: d815 14bd 13c1 6f3d 2ddf 923c a14c 99be
00000380: 7c59 17bc c066 233d d829 40bc a0da ce3a
00000390: 2cb3 2fbc fd2a 613d 9708 16be ace8 c03a
000003a0: d846 f03c 32e5 1a3d 3aff 1d3d 1b60 123d
000003b0: 8732 62bd 44de a03e 3c28 9fbd c16a bdbf
000003c0: cfd0 8e3e f170 5f3e 0459 00be e1aa a63e
000003d0: 2fce a53d d83c 7a3c da48 94bd e819 d8be
000003e0: 4b59 1cbe 3835 493d 3244 8fbc 7203 a7be
000003f0: 0078 673e 3a88 073e 6907 31bf bcc8 41bc
-0.026366044 0.72817427 0.015366328 -0.010681731 -0.33087233 0.0380711 0.06573322 -0.01643863
-0.7228471 0.03775537 -0.046774212 -0.036698163 0.33665663 0.2602563 -0.22338362 0.027858507
0.5321197 -0.008102154 -0.4878941 -0.3054899 0.023772707 -0.010423485 0.27924654 -0.005189205
-0.038780198 -0.3112688 -0.42743206 0.45209467 0.03352139 -0.27079248 0.07888918 0.034568705
-0.061432235 -0.16831525 -0.0037207964 0.05286847 -0.027584437 0.08888033 0.03447169 -0.027723178
0.50201786 0.0029213878 -0.06535304 -0.48994675 0.030277377 0.5967 0.005313913 0.6417969
0.01861336 0.9409532 -0.049492475 0.49293625 -0.05114073 0.013569839 0.33058134 -0.5023089
0.02052283 -0.03299983 -0.18474305 0.043685094 0.05139003 -0.98149633 0.15339799 0.40379217
-0.20008011 -0.21084692 -0.035959654 0.0443376 0.04308313 -0.041564703 0.30283526 -0.060117207
-0.089089565 -0.014286492 0.044000916 0.03889916 0.060600452 0.042493306 -0.6069628 -0.009481505
-0.1685108 -0.5282375 0.06556215 0.15964444 -0.2530714 0.034666702 0.46241367 0.23721425
-0.0032320037 0.20781687 0.3898881 -0.15045924 -0.010955654 0.7926914 0.02005129 0.009919699
0.0030751303 -0.9991054 -0.2886902 0.05349724 -0.035552137 0.035809185 0.009645589 0.044275705
0.0052422956 -0.024756558 -0.86272407 -0.02581335 -0.12565497 -0.13434687 0.03139495 0.56387997
-0.3378276 0.69609976 0.84043175 0.5299578 0.006145727 -0.7322846 0.045595147 0.054889817
0.014041282 0.005042374 -0.27352807 -0.06473098 0.1026273 0.60028875 0.017025337 0.0050723776
-0.05041396 0.4842129 -0.008408185 0.2136249 -0.23067719 0.06331707 -0.046619345 0.6813623
0.008801296 0.14339444 0.012956083 0.82691884 0.3146214 -0.05804249 -0.021639697 0.013072659
-0.0045338855 -0.0061195306 0.6095687 0.052492365 0.5211574 -0.026638743 0.31378308 -0.056130867
-0.04957715 0.009489633 -0.10794588 -0.121957086 0.15766971 -0.13278258 0.7026254 0.49892122
0.007822156 0.04045473 0.032764863 -0.03819911 -0.054405116 -0.10513033 0.01872941 -0.9824369
-0.23810585 0.42149675 0.03355202 0.019361295 0.008668292 -0.3137549 -0.04968454 -0.0016147967
-0.05418341 0.004357379 0.0023945235 -0.023539186 0.0131907165 0.3397181 0.06871054 0.038146734
0.02525722 -0.6344721 0.008964203 0.05539012 -0.50830305 -0.44554752 0.57036126 -0.044490166
-0.02631571 -0.30271953 0.042534634 -0.7469105 0.051747344 -0.29431805 0.038924478 0.7301805
0.021853155 0.11337244 -0.032469697 0.2810434 0.27793738 -0.29493228 0.013837083 0.28171498
0.041789986 0.11134596 0.029936088 0.39944044 -0.036839984 -0.5490127 -0.18353096 -0.02852285
-0.6357628 -0.055258505 -0.041616034 0.098027095 -0.036153644 0.05853374 0.017928684 -0.29941276
-0.009237643 0.039892912 -0.011728726 0.0015781708 -0.01072387 0.054972637 -0.14651714 0.0014717779
0.029330656 0.037816234 0.03857348 0.035736185 -0.055223968 0.31419575 -0.07771346 -1.4798204
0.27893683 0.21820427 -0.12533957 0.32552245 0.08095967 0.015273295 -0.07240458 -0.42207265
-0.15268438 0.04912302 -0.017488573 -0.32619816 0.2260437 0.1323556 -0.6915193 -0.011827644

fc2.bias f4 [3]
00000000: 4e57 e1bc 101c 9e3d 8620 00bc
-0.02750745 0.07720196 -0.007820254

fc1.weight f4 [300, 13]
00000000: 56ca 9bbd c55c 893e 703d 31bd 94a7 0dbe
00000010: 54a2 de3d 9909 24be 6acd 8ebd b099 60bd
00000020: 3978 49be 74ba 14be c79d 36be 907b b43c
00000030: e71c 873e 390f 29bf fd3e 383f 91d4 d63d
00000040: 66c1 d9be 4860 a03f 7a1a c6be 0e7b 7ebe
00000050: e342 53bf 2189 c5be 1cf0 aebc e9f1 8dbf
00000060: 6a1e f53c 7018 423e 4f5e 033e 176e 0dbc
00000070: dbf0 16be 112b 00be d5de f53d 3943 36be
00000080: 9516 343e 16ec 383e 725e 823e e910 a2bc
00000090: 0af1 44be 8739 09be 0fcb 12be f8fb 523d
000000a0: 9e36 0dbe 7a27 44bd 4c69 64be c8b9 2fbe
000000b0: c685 8ebd 7c2a 10bd 2435 6b3e 6f85 563d
000000c0: 5274 023e c550 e9bd da21 fabd 40f6 3dbc
000000d0: 22cb ebbe 1a68 c6bd d0fb 8e3e a6ca 19bf
000000e0: 59f2 28bf 82d5 a6be d1d9 adbe 2898 483e
000000f0: 33ee 45be 0b6c fd3a 4ae0 b23e f21a b9bc
00000100: ccc3 823d 9d4e f0be 6194 ff3d e0c0 a93e
00000110: 372e 14bf efbd d73d caa6 873d 315f acbe
00000120: 7c14 1c3d 5169 2fbf 6b78 49be 3215 09be
00000130: 83a4 1abf 6a50 f2bd bdec 2bbc 517f 3cbe
00000140: f851 e63e ac28 683d dc4a e1bc fc6f 6cbe
00000150: c33c 0bbe 7844 a23d c016 d7be 3776 c8bd
00000160: 68a6 e03e 8669 813c 9c24 7dbe a097 3d3c
00000170: 0c1c f93d 2ab3 7a3d fcdf 3f3e bfa7 03be
00000180: be83 3fbe 3383 6cbe 8b73 1ebe 7b3f 71be
00000190: 3478 fdbd 46bf 48be 5cb0 c4bd f5e5 873e
000001a0: cdb2 57be 2a05 e5be a3e1 793f 6ecd dfbe
000001b0: bcbe dfbd 0bda 20bf 586b 993d 0461 0f3f
000001c0: 901f b8be 9104 033e 199a 8d3e 8e5b a43e
000001d0: 6a73 a8bd 938a d03d d8d2 a93d 637e 0b3d
000001e0: 7013 50bc 5a89 c83d e141 7abe e4bc a43d
000001f0: ba15 c8bd 43f4 d43d 3d1d e6bc bb97 033e
00000200: 0951 753d f8aa fc3d e0d5 f43d 5273 683e
00000210: cc16 8dbe 86ba 713e 8299 f3bd 109c 5d3d
00000220: 2a4d 5fbe 53e1 87be 2fdb 17be 8dd4 85be
00000230: f667 133e 4088 d53d 5dd7 adbd 4ca3 07bd
00000240: e4ca 51bc 6a43 493e 8e2a 7cbc 76bb ddbd
00000250: b728 5abe 7cdb 9a3d 6073 9d3c 6258 073e
00000260: 1c4c 8fbd 18c5 f2bd d42d ebbd 30c0 013d
00000270: 4f79 083f c047 36bf a0c5 fabe 26c8 8e3e
00000280: e4ef fdbe a0b1 2ebe f1b0 a5be 3754 b53e
00000290: efa2 893d 7ae5 2abe bd9c c73e 91fd 58be
000002a0: a0cf 2bbc ef45 bc3e bd2e 21bf f537 4cbe
000002b0: 6662 0bbe 97a3 a8bf b368 243c 1cd1 9bbe
000002c0: 7c1a dc3e 84e4 c83d a27f c5bd 4fb8 a13f
000002d0: b280 57bd 7cde 4abe 1896 30bf 8e58 e5bd
000002e0: 6894 1dbd 3d64 d8be 4d06 60bf d3d3 febe
000002f0: c9ab c0bd d829 393e 1e1c 0f3e 2196 10be
00000300: eaab 643f ec1a 433e 844e da3d 23da 1c3c
00000310: 8b8c 023c 0d70 263e 6522 abbd 7c5c e9bc
00000320: 3a7e 81be b033 94bc 8f1c 0fbe 6306 46be
00000330: 2d2d a1be a9cb 383e e1c4 793e 096b a03d
00000340: c779 103f e3a8 563f f5eb 3d3f f777 e53c
00000350: 6dee 6fbf fc52 4abd 3a82 2dbe f37b 8dbf
00000360: b454 07bf 2f75 903e 0f4e 213f fe84 6ebe
00000370: ea1c 393e 976e 023f 320d 203f 1828 383f
00000380: 338e 8f3e 8eb6 d4bd 9ee5 0a3e 27f8 48be
00000390: cf38 4fbe 5aa3 04bf 33e5 27bf e773 7bbc
000003a0: 9141 e2bd b8d5 5cbe 89e6 96bd ad4d 433f
000003b0: 2e2a 7ebe 6eba 21bd 6086 a03f 7124 d5bc
000003c0: 1c49 72bd c78b 1abf 78a8 e63c f362 4abe
000003d0: e42b 7abf fe96 8bbd bcde 20be 76cd 2a3f
000003e0: 1bdf 043d ce56 8cbe 1766 db3d 12a6 2cbf
000003f0: 2454 1ebe 0421 18be 0963 25bd 1310 a43b
-0.07606952 0.2682859 -0.043271482 -0.13833457 0.108708054 -0.16019286 -0.069727734 -0.054834068
-0.19674768 -0.14524251 -0.17833625 0.022031575 0.26389238 -0.6603885 0.7197111 0.104897626
-0.42530364 1.2529383 -0.38692075 -0.24851629 -0.82523936 -0.38581184 -0.021354727 -1.108945
0.02992173 0.18954635 0.12828945 -0.0086322045 -0.14740317 -0.12516429 0.120053925 -0.17799081
0.1758674 0.1805881 0.2546268 -0.019783454 -0.19232574 -0.13400851 -0.14335273 0.051509827
-0.13790366 -0.04788921 -0.22305793 -0.17160714 -0.06959109 -0.035196766 0.2296949 0.052373346
0.12739685 -0.11392359 -0.12213488 -0.011594355 -0.46053416 -0.096878245 0.27926493 -0.6007484
-0.65994793 -0.3258477 -0.33955243 0.19589293 -0.19329147 0.0019334567 0.34936744 -0.022595856
0.063850015 -0.46934977 0.12479473 0.33154964 -0.5788302 0.10534274 0.06623609 -0.33666375
0.038105473 -0.68520075 -0.19674842 -0.13386992 -0.60407275 -0.11831744 -0.0104934545 -0.18407942
0.44984412 0.056679413 -0.027501516 -0.23089594 -0.13597398 0.07923216 -0.42009544 -0.09788173
0.43876958 0.015797388 -0.24720997 0.011571795 0.12163553 0.06120602 0.18737787 -0.12856959
-0.187026 -0.23096924 -0.15473764 -0.23559372 -0.123764426 -0.19604215 -0.096039504 0.2654263
-0.21064301 -0.44730502 0.9760992 -0.43711418 -0.109250516 -0.6283271 0.07491177 0.5600741
-0.3596158 0.1279471 0.2765663 0.321011 -0.082251385 0.10182681 0.082921684 0.03405608
-0.012699947 0.09791823 -0.24439193 0.080438405 -0.09769769 0.10398152 -0.028090114 0.1285085
0.059891734 0.12337297 0.11954856 0.22700241 -0.27556455 0.2360631 -0.11894514 0.05410391
-0.2180678 -0.26539096 -0.14829706 -0.26138726 0.14395127 0.10426378 -0.08488343 -0.033114716
-0.012804721 0.19654623 -0.015391005 -0.10826771 -0.21304594 0.075613946 0.019220054 0.13217309
-0.069969386 -0.11853999 -0.114833504 0.031677425 0.533101 -0.7120323 -0.489789 0.27887076
-0.49597085 -0.17059946 -0.32361558 0.35415813 0.0672053 -0.16689101 0.3898677 -0.21190478
-0.010486513 0.36772105 -0.6296194 -0.19943221 -0.13611755 -1.3174924 0.010034728 -0.30432975
0.42988956 0.09809211 -0.09643485 1.2634372 -0.052612968 -0.19811434 -0.68979025 -0.11198531
-0.03847161 -0.42263976 -0.87509614 -0.49770984 -0.094077654 0.18082368 0.1397557 -0.1411977
0.8932482 0.19053239 0.10659507 0.009573492 0.007968078 0.16253681 -0.083561696 -0.028486483
-0.25291616 -0.018091053 -0.13975738 -0.19338374 -0.3147978 0.1804644 0.2439151 0.07832915
0.5643582 0.8385145 0.74188167 0.028011305 -0.93723184 -0.049395546 -0.16944209 -1.1053451
-0.5286362 0.28214404 0.6300973 -0.2329292 0.18077436 0.50949997 0.62520134 0.7193618
0.28038177 -0.10386382 0.13564155 -0.19625913 -0.20236515 -0.51811755 -0.65584105 -0.0153474575
-0.11047662 -0.21565902 -0.0736819 0.762904 -0.24820778 -0.039484434 1.2541008 -0.026018353
-0.059151754 -0.60369533 0.028156504 -0.19764309 -0.9772322 -0.06815909 -0.15709966 0.6671976
0.032439332 -0.27409977 0.107128315 -0.67440903 -0.15461785 -0.14856344 -0.04037765 0.005006799

fc1.bias f4 [300]
00000000: fead 79be eb3b 87be fac0 39be a989 2abe
00000010: 1a3d e2bd e722 06be bcf9 d4bd 3975 20be
00000020: bb00 4ebe d9a4 20be b186 15be 4279 bdbd
00000030: b36b 433e 2313 563d c340 23be cf85 8bbd
00000040: 1adc ec3c 42e0 66bd 2e13 37be 83b7 65bd
00000050: 0c53 16be 6606 52be cd42 053d 1ba8 c6bd
00000060: 856c 6abe b818 473e a3a0 86be 5b51 10bc
00000070: ab33 09bd 49de 6bbe 77c9 433e 76ad 1cbe
00000080: 6ce6 58bd 5bf8 cbbd 123b bebd 5cb8 55be
00000090: ad58 60be 34cf 9cbe 7e65 55be 401d 4fbe
000000a0: ffb4 37be 81e3 6abe aed7 a2bd 1938 333e
000000b0: af25 8ebd 6293 c0be 037f 81bc 831c 38be
000000c0: 94c0 2abe a071 903c 1ca1 50be 641f dfbd
000000d0: 46f9 2ebe 3dac 85be 5037 ef3d d98a c4bd
000000e0: 3b05 d13c 5e05 89bd e61f 7abe 9098 25be
000000f0: 00da 5dbe 5c1f 2abe f6ad afbd dc0f bdbd
00000100: 2a63 3fbe 1693 72be faf3 18be ebc8 86be
00000110: a440 7abe db6f 46be 70aa 8a3b 1d83 61be
00000120: 3b41 1dbe ce04 bbbd 19d7 60be 7446 5fbe
00000130: 16b9 74be 6ff8 87bd 864d 47be 507f 2cbe
00000140: 69d5 6dbe d96a 2bbe 48f9 5abe d2af 0f3d
00000150: 4df2 22be f756 0ebe e6d0 8abd d0c2 6abe
00000160: ee6f f2bd e3c3 4ebe 3062 043d 8fce cbbd
00000170: 1817 45be 2e23 eebb e2aa 56bd cbff 6fbd
00000180: b0f9 6dbe 0c8c 87bd da58 00bd 4b49 2ebe
00000190: ab02 64be 7c9c 303e 706e 2abe 304e 9abd
000001a0: d1b1 65be c140 29be 2dbc 47be d68c f2bd
000001b0: 4204 a1bd 94fd 103d 60e4 e4bd caf9 56be
000001c0: 1e63 a0be b791 20be 9640 c0bd d026 7cbc
000001d0: 7130 e0bd 284b 7fbe 7991 eabd 2571 21be
000001e0: d0a6 a5bd 0e31 6ebe 99a1 113d 800e a4bd
000001f0: be54 3cbc f9cb 3fbe d75b 8abe 0265 7dbe
00000200: 0875 8abe 8233 70be 2d3d 6fbe 36ee b4bd
00000210: 3635 56bd 15f4 66ba 6479 10be eadf 1bbe
00000220: efa3 0fbe 0468 323d a1fd 62be e9b6 64be
00000230: 31b7 2abe c6a5 eab8 b8c9 11be 0036 c6bd
00000240: 7885 13bd e75d 5fbe f0ac c8bd d64e 34be
00000250: 71e7 8ebe a27e 64be cc97 f1bd d93a 73be
00000260: c6eb 42be cee2 50be e498 51be 5e1c 1bbd
00000270: 59c7 2f3c e001 1bbe 28c5 8ebd 98f1 fe3c
00000280: 262b 41be 74be 71be 014e acbd ecd3 68bd
00000290: 1a16 bdbd dca2 16be a4ed 1fbe 4036 a0be
000002a0: 92dc 963d b8b0 913d 2d01 73be a001 51bd
000002b0: f4b4 f3bd 3426 703e 4ee1 62be 1a84 33be
000002c0: 66b0 57be 2fcc 71be aa4f 7cbe 3847 54be
000002d0: da50 51be ef83 45be efea 7cbe e4d1 94bd
000002e0: 0885 ba3d 6189 acbe d246 83be aa18 7fbe
000002f0: cfe7 afbd 5eaf febd f5c4 e5be 309e 4dbe
00000300: 9b39 8ebe 42f7 4f3d 849c b1bd f13b 3ebe
00000310: 4290 5bbe 52fc bcbd a429 16be fd89 eabd
00000320: d20b 00be 372b a03d 703c 68be 8558 273e
00000330: 9493 0a3e 374a 33bc 1807 9abd 0b24 f4bd
00000340: 71bb 1fbe 61bf f9bd 6279 77be 8b82 d23d
00000350: 0974 71bc afaa 02be 8185 a9be 8e95 83be
00000360: 0cbd 07be 6a08 45be a803 9fbd ca58 e1bd
00000370: 3e37 cabd b492 6cbc aa32 323d 8eec cd3d
00000380: fc3a c1bd ee4d 0cbe b2dd 51be 965f f2bd
00000390: efc1 09be 44fc 5bbd cfc8 17bd 830a 8abd
000003a0: 149d 2bbe 33a3 c2bc b164 29be ea16 3abe
000003b0: 0639 5cbe eec9 90bd 7221 e6bc e935 9abd
000003c0: c347 45be ce08 30be 5780 cbbd beca febc
000003d0: f5dd d7bc 4dee 2bbd d050 08bd 1cc5 1fbe
000003e0: 046c 19be 5f0b 07be e583 a7bd 5a2c b1bd
000003f0: 9ed8 cf3d 5993 e5bd dbea 92be 586c 2cbe
-0.24382779 -0.264129 -0.18140021 -0.16654076 -0.110468104 -0.13099252 -0.103991956 -0.15669717
-0.20117466 -0.15687884 -0.14602162 -0.09251644 0.19084053 0.052264344 -0.15942673 -0.06812631
0.028913546 -0.056366213 -0.1787841 -0.056083214 -0.14680117 -0.20510253 0.03253441 -0.09700032
-0.2289296 0.19443023 -0.2629443 -0.008808459 -0.03349654 -0.23034014 0.19119821 -0.15300545
-0.052954122 -0.099594794 -0.092886105 -0.20871109 -0.21908827 -0.30626833 -0.20839497 -0.20226002
-0.17940138 -0.22938348 -0.07951294 0.17501868 -0.06940781 -0.37612444 -0.015807634 -0.17979626
-0.16675025 0.017632306 -0.20373958 -0.10894659 -0.17087278 -0.2610797 0.11680472 -0.095967956
0.02551519 -0.06690477 -0.24426231 -0.16171479 -0.21665192 -0.16613525 -0.08578102 -0.092315406
-0.18690172 -0.23688921 -0.1493682 -0.26325163 -0.24438721 -0.19378607 0.0042317435 -0.22022672
-0.15356915 -0.09131776 -0.21957053 -0.2180422 -0.2389873 -0.06639182 -0.19463167 -0.16845441
-0.23225941 -0.16739978 -0.21384156 0.035079785 -0.15912743 -0.13900362 -0.067781255 -0.22925878
-0.11837755 -0.20191912 0.0323202 -0.09951507 -0.19247091 -0.0072673773 -0.05240906 -0.058593553
-0.2323978 -0.06618509 -0.031334735 -0.17020147 -0.22266643 0.17247194 -0.16643691 -0.07534444
-0.22431113 -0.16528608 -0.19505377 -0.118432686 -0.0786214 0.03539808 -0.111763716 -0.20993724
-0.3132562 -0.15680586 -0.09387319 -0.015390113 -0.109467395 -0.24931014 -0.11453528 -0.15765817
-0.080884576 -0.232609 0.035554502 -0.08010578 -0.0114948135 -0.18730153 -0.27023193 -0.24745563
-0.27042413 -0.23457149 -0.2336318 -0.08834498 -0.05229684 -0.0008810175 -0.14108807 -0.15222135
-0.1402738 0.04355623 -0.22167064 -0.223354 -0.16671444 -0.00011188867 -0.14237106 -0.096782684
-0.036015958 -0.21813165 -0.0979861 -0.17608199 -0.2791095 -0.22313932 -0.11796531 -0.23752917
-0.19035253 -0.20399019 -0.2046848 -0.03786885 0.0107286805 -0.15137434 -0.06971198 0.03112106
-0.18864116 -0.23607808 -0.084133156 -0.05684273 -0.09232731 -0.14710563 -0.15617996 -0.3129139
0.07366289 0.071137846 -0.23730917 -0.05102694 -0.118997484 0.23452073 -0.2215626 -0.17530861
-0.21063384 -0.23613046 -0.24639764 -0.20730293 -0.20440999 -0.1928861 -0.24698995 -0.07266596
0.09107405 -0.33698562 -0.2563997 -0.24911752 -0.08589136 -0.124357924 -0.4487683 -0.20079875
-0.27778324 0.050772913 -0.08672431 -0.18577553 -0.21441749 -0.09227814 -0.14664322 -0.114521004
-0.12504509 0.078207426 -0.22679305 0.16342361 0.13532859 -0.010942987 -0.07520884 -0.11920937
-0.15598847 -0.12194706 -0.24167398 0.10278805 -0.014737138 -0.12760423 -0.33109668 -0.2570004
-0.1325571 -0.19241491 -0.07764369 -0.11003263 -0.09873818 -0.014439274 0.04350535 0.10054885
-0.094350785 -0.13701603 -0.20494726 -0.11834638 -0.13452886 -0.053707376 -0.03705674 -0.06740286
-0.1675914 -0.02375946 -0.16542317 -0.18172804 -0.21506128 -0.07069765 -0.02809212 -0.07529814
-0.19265656 -0.17190859 -0.09936588 -0.031102534 -0.026350955 -0.04197531 -0.033280194 -0.15602535
-0.14982611 -0.13187931 -0.08179454 -0.086510375 0.10148738 -0.11209745 -0.28694806 -0.16838205

fc2.weight f4 [3, 300]
00000000: 9cfd d7bc 4260 393f 0ac3 7b3c 3102 2fbc
00000010: 9d78 abbe 28f0 1b3d 829f 863d 4eaa 86bc
00000020: 1bb1 3abf 4ca5 1a3d 5696 3fbd d050 16bd
00000030: 0f34 ad3e 5744 863e d208 64be 4d37 e43c
00000040: 52f7 083f cfdf 3abc 3688 fbbe dedc 9cbe
00000050: 52bf c23c 44c7 2abc 2dcf 8d3e ed09 aabb
00000060: fcd7 1ebd 728a 9ebe 2fea e1be 61b1 e73e
00000070: 734d 093d 96a5 8abe 9924 a63d ea97 0d3d
00000080: 46a0 7bbd e3e6 2cbe 7ad8 73bb 948c 583d
00000090: 14f9 e1bc 1107 b63d 3032 0d3d b81b e3bc
000000a0: f63a 013f be74 3f3b 8d49 9bbd 4b8c f9be
000000b0: f607 f83c 31b1 183f 0520 ae3b eeaf 223f
000000c0: 0c7b 983c f721 713f 9fb8 4abd 6962 fc3e
000000d0: f178 51bd 0854 5e3c 1e6c ac3e 76a2 00bf
000000e0: b01f a83c d42a 07bd 892d 3dbe 24ef 323d
000000f0: 937e 523d 64f0 7cbf b463 1c3e 5002 ce3e
00000100: 77e1 4cbe 83e8 57be 216a 5bbd 589b 353d
00000110: f077 303d c03f 2abd 7cc7 9c3e c13d 76bd
00000120: a122 d9bd e411 6abc 4e3a 343d e754 1f3d
00000130: 0238 783d 760d 2e3d 67ee 1abf 5058 1bbc
00000140: 748e 2cbe 65d2 05bf 4745 863d 3c7a 233e
00000150: 8b92 81be acfe 0d3d fb14 ec3e 7d60 743e
00000160: b0cf 53bb fccd 543e 574b c73e 65b6 17be
00000170: 587f 33bc 9398 4a3f 2752 c93c 0050 a937
00000180: 2088 493b 6b83 7fbf 64d2 92be f41f 5b3d
00000190: 249f 11bd 2e18 1b3d 8808 1e3c cd5a 353d
000001a0: 90c7 ab3b 44ce cabc 68a4 5ebf 9f76 d3bc
000001b0: 0864 f7bd fb6e 07be 94ee 0d3d 0a6c 0f3f
000001c0: e7db aebe 551c 2a3f e91a 563f fc9e 073f
000001d0: 2662 c93b 8155 3abf 02c2 3a3d 1dd4 603d
000001e0: 680d 663c 803a a53b 9717 8abe 186c 8fbd
000001f0: 1c2e d23d c409 163f b878 8b3c 3036 a63b
00000200: de7e 4ebd f5f3 f53e 7cc2 09bc a3c0 5a3e
00000210: 66df 6bbe b6ac 813d 39f4 3ebd 603d 2d3f
00000220: 5033 103c c43c 103e c045 543c 3452 523f
00000230: d67a a03e 2e2d 78bd e145 b1bc 5bbd 933c
00000240: 0b91 94bb 5886 c8bb f13f 1c3f 0c02 573d
00000250: ae0f 043f 7e39 dabc 4d33 a33e 7be9 65bd
00000260: 6911 4bbd 687a 1b3c 6412 ddbd ee91 fabd
00000270: 5d0a 1d3e 6ef8 07be 9662 323f f07c 003f
00000280: 8028 003c dcb3 253d 7b34 063d ac76 1cbd
00000290: 4bd8 5ebd dd88 c7bd bf6e 993c 7838 7cbf
000002a0: 24bd 6ebe e93d d93e df6d 093d 949b 9e3c
000002b0: b8fa 073c 8664 9fbe 0482 4bbd 74a7 d3ba
000002c0: 6cef 5dbd 58c8 8e3b 70ed 1c3b 17d5 c0bc
000002d0: e01d 583c aaf7 ad3e e42e 8c3d 743f 1c3d
000002e0: 72cf f13c 186d 22bf 98de 123c c0e0 623d
000002f0: d77b 03bf b270 e4be 8703 123f 523b 36bd
00000300: 2394 d7bc 0cc5 9abe cc38 2e3d a619 3cbf
00000310: 06f5 533d 13f5 95be 466f 1f3d f5fd 393f
00000320: 8905 b33c 7abf f33d f2fe 04bd 641a 8f3e
00000330: 5c7f 8f3e b254 95be 5cb5 623c 124d 8f3e
00000340: fa2b 2b3d f6be e03d 563c f53c 225e cf3e
00000350: aa76 12bd 686d 0bbf f5ef 3bbe c0a8 e9bc
00000360: 6332 26bf be56 62bd bc75 2abd 675d bb3d
00000370: d815 14bd 148a 673d 2e7a 9b3c 10e4 99be
00000380: 7c59 17bc c066 233d d829 40bc a0da ce3a
00000390: 2cb3 2fbc d52a 613d 50d5 1abe 02e9 c03a
000003a0: d846 f03c 5be5 1a3d 7fff 1d3d 7f60 123d
000003b0: 8732 62bd 4ac8 a23e 01ba 9fbd 449f bcbf
000003c0: c7d0 8e3e ce40 583e 2959 00be ec54 a63e
000003d0: fe11 9a3d ce3c 7a3c 5276 92bd 9748 d9be
000003e0: 9f59 1cbe abc1 4f3d 9bdc 3fbc 3b64 a5be
000003f0: bf7e 673e 5288 073e 69f2 2dbf bcc8 41bc
-0.026366048 0.724125 0.015366325 -0.010681675 -0.33490458 0.038070828 0.065733925 -0.01643863
-0.7292649 0.037755296 -0.04677423 -0.036698163 0.3382878 0.26224014 -0.2226899 0.0278584
0.5350238 -0.011405899 -0.49127358 -0.30637258 0.02377287 -0.010423485 0.27697125 -0.0051891715
-0.038780198 -0.30965 -0.4412398 0.45252517 0.033521127 -0.27079457 0.08112449 0.034568705
-0.061432146 -0.16884951 -0.0037207888 0.05286844 -0.02758459 0.088880666 0.03447169 -0.027723178
0.5048059 0.002921387 -0.07582388 -0.48739848 0.030277234 0.5964537 0.0053138756 0.635497
0.01861336 0.9419245 -0.049492475 0.4929383 -0.05114073 0.013569839 0.33676237 -0.50247896
0.020522922 -0.03299983 -0.18474402 0.043685094 0.05139024 -0.98804307 0.15272409 0.4023614
-0.20007883 -0.2108479 -0.05356801 0.0443376 0.04308313 -0.041564703 0.30620944 -0.060117487
-0.10602308 -0.014286492 0.044000916 0.03889933 0.06060029 0.042493306 -0.60520023 -0.009481505
-0.16851217 -0.5227416 0.06556182 0.15964597 -0.25307116 0.034666702 0.46109757 0.23864932
-0.0032319836 0.20781702 0.38924667 -0.14815672 -0.010955654 0.7913906 0.024575306 2.0183623e-05
0.0030751303 -0.998099 -0.2867614 0.05349727 -0.03555216 0.037864856 0.009645589 0.044276047
0.0052422956 -0.024756558 -0.86969614 -0.025813399 -0.12079626 -0.1322593 0.034651354 0.5602423
-0.34152147 0.6644948 0.8363481 0.52976966 0.0061457334 -0.7278672 0.045595177 0.054889787
0.014041282 0.005042374 -0.26971123 -0.07003039 0.10262701 0.5860865 0.017025337 0.0050723776
-0.05041396 0.48037687 -0.008408185 0.21362548 -0.23034438 0.0633177 -0.046619628 0.67671776
0.008801296 0.1408568 0.012956083 0.8215668 0.31343716 -0.06058996 -0.021639766 0.018034628
-0.004533892 -0.0061195306 0.61035067 0.052492186 0.51586425 -0.026638743 0.31875077 -0.056130867
-0.04957715 0.009489633 -0.10794523 -0.12234865 0.15335985 -0.13278362 0.6968168 0.5019064
0.007822156 0.04045473 0.032764893 -0.03819911 -0.05440549 -0.097429015 0.018729566 -0.98523664
-0.23314339 0.42430046 0.033552047 0.019361295 0.008299522 -0.3113138 -0.04968454 -0.0016147927
-0.05418341 0.004357379 0.0023945235 -0.02353911 0.0131907165 0.33978015 0.06844881 0.03814645
0.029517863 -0.63447714 0.008964203 0.05539012 -0.5136084 -0.4461723 0.5703663 -0.044490166
-0.026315754 -0.3022846 0.042534634 -0.73476636 0.051747344 -0.2928854 0.038924478 0.7265313
0.021853225 0.11901756 -0.032469697 0.27949822 0.28026855 -0.2916618 0.013837185 0.27988487
0.041789986 0.10973923 0.029935997 0.40501505 -0.035757698 -0.54463816 -0.18353255 -0.02852285
-0.64920634 -0.055258505 -0.041616186 0.091486745 -0.036153644 0.056528166 0.018979158 -0.3005681
-0.009237643 0.039892912 -0.011728726 0.0015781708 -0.01072387 0.05497249 -0.15120435 0.0014717879
0.029330656 0.037816387 0.03857374 0.035736557 -0.055223968 0.31793433 -0.07799149 -1.4736104
0.2789366 0.21118471 -0.12534012 0.32486665 0.07522963 0.015273286 -0.07151474 -0.42438194
-0.15268563 0.050721806 -0.011710311 -0.32303032 0.22606944 0.13235596 -0.67948014 -0.011827644

fc2.bias f4 [3]
00000000: 4c64 e4bc 0713 a13d 72fa 42bc
-0.027879857 0.07864957 -0.011900531

fc1.weight f4 [300, 13]
00000000: 1815 473e 6899 5c3e a19a ef3e fb32 1fbe
00000010: 70ed b5be 1503 2cbe ac12 a1be 37db 9fbe
00000020: cdb5 aebe 1a6e 83be e4e7 3cbb d6bc c7be
00000030: 75d1 7fbe 8f3e 2b3e 1f91 913e 521f 2e3d
00000040: ab7a 123e 9ba6 8bbe c76e 5abc bd58 443e
00000050: c374 01be 820a 2bbe 2aea b8be e381 e4bd
00000060: bc18 0cbe 4613 5b3e fb68 cc3e b16e 773d
00000070: f3be c43d 00de 1f3f 80df 0a3f f823 163e
00000080: a5eb 1abd 98ef 243e 840b a1be 5431 eabd
00000090: 1fca 15bf 63fb b4be d01b 3b3e ec63 663e
000000a0: 64aa d8bd 10d3 823e 487e e63e 069e f73d
000000b0: 3df8 fe3b 0cba 8fbe 92c9 b3be dfa5 52bd
000000c0: 4796 a9be 04cb 7d3e 9f4b c1be 925b 89bd
000000d0: 3278 b1be 04ef 96be b39d 0dbe 9839 d5be
000000e0: 2d70 09bf c975 6c3d 7538 8cbc ea93 cc3e
000000f0: 01bb b3be 1907 653d 5b17 f43e 09bc 393e
00000100: 721c 1abe e901 553c d48c a93e e881 c23d
00000110: 2ce9 93be e098 72be b95e bf3d eb9b babe
00000120: c7ae 79be 488d a6be 9cc1 41be cd13 2abc
00000130: 485e 81be a84a 2abd 1d08 2d3e b694 8b3d
00000140: 2a35 9d3d f085 a8bc 303a 083e 17ca 64be
00000150: 0488 01be 4579 dcb8 d088 96be 74d3 babd
00000160: 1e85 22bb c2ea cfbd e866 b13d 30a2 863d
00000170: 8018 bc3c 10e4 e5bd 80c8 693b 807a 5a3d
00000180: c294 3bbe 3486 5e3e 206b 973d 044f 35be
00000190: 1cbd 04bd 4890 b83d 9649 243e 40a7 ed3d
000001a0: bceb 23be 62b6 29be 5054 bebd c01c 423d
000001b0: 4438 6cbd bc93 fdbd 2c88 1cbd bf11 8c3e
000001c0: 83a0 0cbe be6b 6d3e 708e 3abd 5fa9 8dbe
000001d0: 99d2 3dbe 4d9a a2be 897e 863e affc 9d3e
000001e0: 4f38 bfbe 74ac 523e bcd8 03bd 2224 963e
000001f0: 92ba 10bf 987d ee3d 81ed 21be be10 543e
00000200: df5c d53d de17 54be 13bc 0fbd 1e95 0dbe
00000210: 563b 17bb 819a 90bc 44dc 84bf dd7c 2b3e
00000220: cda3 3bbe 8bd5 0dbd 2d68 513e 28d4 33bc
00000230: 9e1b 623f d7af 853e 40b7 1ebc 4cd0 1bbe
00000240: e174 30be 5beb 0fbe be6b 273e a6b1 bdbe
00000250: 572b ccbc d8d9 0ebe e507 22bd aecc 3f3c
00000260: c5fc 89be cbf0 da3d 29a9 653e 18ff 7dbd
00000270: 6073 843c 4e37 353e 7e35 49be bc40 523e
00000280: 5a33 6f3e 44b3 44be 7851 b83d 1c5f cabd
00000290: ea95 16be ac6d 6fbd 9da1 06be 7047 c7bc
000002a0: ffbf 02be 2efd 17bf 0746 adbd 0c6b c23d
000002b0: 3d9d fdbe 412a babe e4c4 4a3d a9ec d73d
000002c0: 2b7a 593e 6414 c7bd a26d 463e 6f17 d83e
000002d0: 0677 4f3e 5031 cc3c 9b0f a73d bfd4 353e
000002e0: aceb 9b3e 2e15 cfbe d401 bb3d eea7 933e
000002f0: 105d 603c 57e8 bbbe 6c35 50be 4dac 2b3e
00000300: a473 143d b383 243c 0cfd 3e3e f81c 7a3d
00000310: 4b7c f2bd 56cb 8e3b 65d6 a63e 7ef2 41bf
00000320: df60 ee3d d2b9 3c3e aa29 9bbd a46f 4d3d
00000330: 17fd 3b3e 3a8c 323f c7fe fe3d 204e 9f3d
00000340: de66 0ebe 08fb a9be 4493 b6be 6ae8 6fbe
00000350: 42e9 b2bd c196 e43e 6385 75bd da05 363f
00000360: 3fd3 993d 60f7 cc3d 8246 8c3e 5438 f7be
00000370: 8812 a5bd 7e3a bbbe 4728 a7bb a3d8 1e3e
00000380: 5cb6 dabe 2181 1ebe 29dd fe3d 8550 1e3e
00000390: 692c d3be ed18 f8bd 0312 993e bb1e c63d
000003a0: 0d87 673e c0d8 c23b 81bc a0bd 996d af3d
000003b0: d89d 9e3c 3362 91bd 0124 20be 1253 9b3d
000003c0: 91bb 0c3d c2ea 42be b809 39bd 53b3 82be
000003d0: 918d 0a3e 7947 1e3e 00ac 9eb9 6213 b53e
000003e0: 7754 703e 0460 3abe dd81 3ebd fc0f 253e
000003f0: 4f9a 04bd 0aa2 19be 9a4e c63d b8dc c6be
0.1944164 0.21542895 0.4679766 -0.15546791 -0.35532713 -0.1679805 -0.31459558 -0.31221935
-0.34123078 -0.25669938 -0.002882474 -0.39011258 -0.24982245 0.16723083 0.2843103 0.042510338
0.14304607 -0.27275547 -0.013332075 0.19174476 -0.12642197 -0.16703227 -0.36116153 -0.111575864
-0.1368131 0.21394071 0.39923844 0.060408298 0.09606733 0.6244812 0.54247284 0.14662158
-0.037822384 0.16107023 -0.31454098 -0.1143519 -0.5851154 -0.35348043 0.18272328 0.22499055
-0.105793744 0.25551653 0.4501822 0.120906875 0.007781057 -0.2807163 -0.35114723 -0.05142772
-0.33122465 0.24784476 -0.37753007 -0.06706919 -0.34662014 -0.2947923 -0.13829689 -0.41645503
-0.5368679 0.057729516 -0.017116765 0.399566 -0.3510361 0.055914972 0.4767407 0.18138136
-0.15049914 0.013000944 0.33115256 0.09497434 -0.28888834 -0.2369113 0.09344239 -0.3644708
-0.24383079 -0.32529664 -0.18921512 -0.010380697 -0.25267243 -0.041575104 0.16897626 0.06815474
0.07676156 -0.020571679 0.13303447 -0.22342716 -0.12649542 -0.00010513006 -0.29401255 -0.09122363
-0.0024798582 -0.101521984 0.08662206 0.065739036 0.022960901 -0.1122514 0.0035672486 0.05333948
-0.18318465 0.21730882 0.07393479 -0.17705923 -0.03240691 0.090118945 0.16043696 0.11604166
-0.16007894 -0.1657348 -0.09293425 0.0473907 -0.057670847 -0.12381694 -0.0382158 0.2735729
-0.13733105 0.23185632 -0.045545995 -0.27668282 -0.18537368 -0.31758347 0.26268414 0.30856845
-0.37347648 0.20573598 -0.032189116 0.29324442 -0.56534684 0.11645049 -0.15813257 0.20709512
0.104181044 -0.2071223 -0.03509147 -0.13826415 -0.0023076138 -0.017651798 -1.037972 0.1674685
-0.18324204 -0.03462748 0.20449896 -0.010975875 0.8832339 0.26110718 -0.009687245 -0.15216178
-0.17232086 -0.14054625 0.16349694 -0.37049598 -0.02492301 -0.13950288 -0.03955831 0.011706514
-0.2695066 0.10690459 0.2242781 -0.062010854 0.016168296 0.17696878 -0.19649312 0.20532507
0.23359433 -0.1920901 0.08999914 -0.09881422 -0.14705625 -0.0584542 -0.13147588 -0.024326056
-0.12768553 -0.59370697 -0.08460622 0.09493074 -0.49534026 -0.36360362 0.049504176 0.10543186
0.2123801 -0.09720686 0.19377759 0.42205378 0.20260248 0.024925858 0.081572734 0.17756937
0.3045324 -0.40445846 0.09131208 0.28839058 0.013694063 -0.367007 -0.20332879 0.16764946
0.036243096 0.010041165 0.18651217 0.061062783 -0.11840113 0.0043577356 0.32585445 -0.7576064
0.116395704 0.1843026 -0.07576306 0.050155297 0.18358265 0.6974522 0.12450939 0.07778573
-0.13906428 -0.33199334 -0.3565923 -0.23428503 -0.08735897 0.44646266 -0.05994166 0.7110268
0.07510995 0.100081205 0.27397543 -0.48285162 -0.08060175 -0.36568063 -0.005101237 0.15512328
-0.42717254 -0.15478946 0.12444527 0.15460403 -0.4124482 -0.12114129 0.29896554 0.0967383
0.22610112 0.005946249 -0.07848454 0.08565826 0.019362375 -0.07098808 -0.15638734 0.07584204
0.034358565 -0.19034865 -0.045175284 -0.2552744 0.13530566 0.15456952 -0.00030264258 0.3536635
0.23469721 -0.1820069 -0.046510566 0.16119379 -0.032373723 -0.15003219 0.09682961 -0.3884027

fc1.bias f4 [300]
00000000: 9ad0 18be 10f4 84be 804e 31be bc17 743c
00000010: 7e1f 8bbd 2693 993b b0f8 abbe 3c01 69be
00000020: d606 54be 5cae 083e 574e 5f3e 8043 34be
00000030: 2ace 163e 743f d7bd 3c7a f63d 25b7 9f3c
00000040: f929 7fbe 1995 a93e 85b9 193c c5ec 31be
00000050: 23ea 083e e130 83be 2351 2dbe 88d5 ecbd
00000060: b807 7dbe 1f69 54bc d02b c4bb 40d0 22be
00000070: a9ca 6dbd 407c a1bb 044a de3c 6c5a ffbd
00000080: 00fe 48bd 1ae4 ffbc cd1d 9bbe ff6a a3be
00000090: a512 cdbe 48cb 833d 6b19 22bd c8ac 5dbe
000000a0: 3e61 9abe 2c9a 803d 2c74 063e ed95 783d
000000b0: d4e2 6abe 767d 42be ff27 f4be 31e6 d6bd
000000c0: 50b7 e63c 2cc3 1abe 4dbb 1b3e 5f0f 193e
000000d0: afd4 433e c281 adbd d68f 2bbe a588 8f3e
000000e0: 9970 acbd df15 24be 494f 40be 1a50 3bbe
000000f0: 32bc e9bd 2a5b abbd 37fd 6cbe 0444 d8be
00000100: c561 19be be46 6ebe 183e 3c3d 0c44 f93d
00000110: f6c2 b93c 6af7 473e 1188 62bb dae3 86bd
00000120: 23b4 ddbd ca77 533d 6e4b c83d 2664 563d
00000130: cb52 88bd 124c 73be be0d 12be 0332 1c3e
00000140: 4712 d8bd 2a14 3fbd 4b96 d23c c187 013e
00000150: c6db 76ba baa6 07be 7cd1 b7be faba 983e
00000160: 5568 85bc ff5e 553e 8411 863d 9a33 503e
00000170: 9407 babe 72e9 cdbc 00e9 453b 69f5 353e
00000180: dac2 13be 0235 8cbe f5a4 8e3d 4a92 e3bd
00000190: 4f12 38be 9e9f 6e3e 42ee 50be 515c e23d
000001a0: a859 7ebe a844 a1be fdc4 83be ae57 193e
000001b0: a474 bd3d 911a 323e 04fd 89be 4abc 58be
000001c0: 0dfc 80be 4f6f 9e3d be1f 3d3e 043c a9be
000001d0: 5a68 b1be 34a9 1dbe 1c71 74be 85a9 533c
000001e0: dca2 cabe 06e8 c8bd e252 363e 6647 80bd
000001f0: 589a d13d 64ab 09bd d5ab 0d3e c2e7 d1bd
00000200: 5d5a e03d 6a9e 55be b590 f73d dbee 3fbd
00000210: ab86 e73d 2a2b 2bbc cd28 853d 39d9 813b
00000220: 6bd4 5a3c 80bd d93c ef56 95be d318 473d
00000230: 8a3d 6cbd 67ad 58bd 3d0c 97be 2d30 9d3c
00000240: 2f0d 283c 57ef 95bc a01a 7abe 0e6a f4bd
00000250: ffa3 a0be 8a17 03be 167c abbd 1cf9 bebd
00000260: 977c 6ebd ec77 8ebe 7e70 37be e3ba 72be
00000270: 6b24 293d a5ea 173e 4a76 663e dcd4 ca3c
00000280: fed6 1d3e fa85 31be 1e2e 2f3d 46ac b4be
00000290: 3113 033e 505c 05be 600a 95be 2b3b df3d
000002a0: aece 58be 0bcb f9bc 03d5 763d f223 6fbe
000002b0: d33e 37be 4371 8cbe b49a 54bd 5a7d ecbd
000002c0: 8927 623e 1321 a1bd 660e 6fbe 484e 053e
000002d0: 6106 33be 2cbc a23d 5903 1ebe 5210 74be
000002e0: 9de0 c7bd 5318 00be a8d3 c03d 10f4 2dbe
000002f0: 0d97 75bb 69ab 57bd 00ce 42be 68e2 28be
00000300: 45c1 3fbe 5df0 8fbe c4c0 e8bd 325c 77be
00000310: d854 953d 1920 a5bd 2327 48be 3c68 97be
00000320: 001b efbc bf3f 62be db93 40be 54af 7abe
00000330: 2c7e e8bb cabd 643c 7e3e 263e 2799 04be
00000340: 1e7d 87be e131 36be b10f 8dbe 7e86 d53d
00000350: 5193 78be 93ec 86be a361 2bbe 88be 49bd
00000360: 6124 ba3d c608 73bd e9a1 bd3d b85f f9bd
00000370: 7ea3 613e 1136 0abe 1d95 02be 8751 243c
00000380: 85d0 e33d 93cb 9cbd d5a1 f1bc 3985 5abe
00000390: c80c 11be 4c0d 8ebc 9c59 82be 4034 77be
000003a0: 103f 21be c8cc ec3d 96d7 0fbe c8cc a7bd
000003b0: 3ba4 bbbd e95c b7be 0d81 1d3c 56fe 66be
000003c0: 001e 5fbd 607b 513d 79fc cd3d 2e34 6dbe
000003d0: 30ba 2b3d 22e8 11be 050f f5bd acda 0bbe
000003e0: 6d13 39be 1dac 1b3e d28e c33c a0b7 c0bd
000003f0: 7c64 b0be 065d c4bd 4be9 afbe fb0a 9c3c
-0.14923325 -0.25967455 -0.17315102 0.014898237 -0.06793116 0.004686731 -0.3358817 -0.22754377
-0.20705733 0.13347763 0.21807228 -0.17603874 0.14727083 -0.105101496 0.12035033 0.01949651
-0.24918355 0.33121565 0.00938261 -0.17375477 0.13370566 -0.2562323 -0.16925482 -0.11564165
-0.24709976 -0.012964516 -0.005986668 -0.15899754 -0.0580546 -0.004928142 0.027134903 -0.124684185
-0.04907036 -0.031236697 -0.30296174 -0.3191757 -0.40053287 0.06435257 -0.03957502 -0.21647942
-0.30152315 0.06279406 0.13130254 0.060689855 -0.2293809 -0.18993172 -0.47686765 -0.10493124
0.028163582 -0.15113515 0.15208168 0.1494727 0.19124101 -0.08472015 -0.16754088 0.2803394
-0.08419914 -0.16023968 -0.18780245 -0.18292275 -0.114128485 -0.083669975 -0.23143469 -0.42239392
-0.14978702 -0.23269174 0.045957655 0.12171182 0.022675972 0.19527975 -0.0034565965 -0.06586428
-0.10825374 0.05162791 0.09780012 0.052341603 -0.066564165 -0.23759487 -0.14263055 0.15253453
-0.10550361 -0.04665009 0.02570643 0.12649442 -0.0009416904 -0.13247195 -0.3590201 0.29830152
-0.016285101 0.2083702 0.065463096 0.20332184 -0.36333907 -0.02513573 0.0030198693 0.17769398
-0.14429799 -0.27384192 0.06965057 -0.11111887 -0.17975734 0.23303077 -0.20403388 0.11052764
-0.24838889 -0.31497693 -0.25736228 0.14974853 0.09250763 0.17392947 -0.26950848 -0.21165577
-0.251923 0.07736074 0.1846914 -0.330536 -0.34649926 -0.15396577 -0.23871273 0.012918835
-0.39577377 -0.0980988 0.17805055 -0.06263618 0.10234517 -0.033610716 0.1383508 -0.102492824
0.109547354 -0.20861211 0.120881476 -0.04685865 0.11304983 -0.010447303 0.06501923 0.0039626625
0.013356308 0.026579618 -0.29167888 0.04860766 -0.057675876 -0.052899744 -0.29501525 0.019188011
0.010257049 -0.018302603 -0.24424219 -0.11934291 -0.3137512 -0.12801948 -0.08373277 -0.093248576
-0.058224287 -0.27825868 -0.17914006 -0.23704104 0.041294497 0.14835604 0.22506061 0.024759702
0.15414044 -0.17336264 0.04276859 -0.35287684 0.1280029 -0.13023496 -0.29109478 0.10899957
-0.21172592 -0.030492326 0.060261738 -0.23353556 -0.1789506 -0.27430162 -0.05190535 -0.115473464
0.22085394 -0.078676365 -0.23345336 0.13018143 -0.17482902 0.07946047 -0.15430965 -0.2383435
-0.097596385 -0.12509279 0.0941537 -0.16987634 -0.0037474066 -0.052653704 -0.19023895 -0.16492617
-0.1872607 -0.2811307 -0.11364892 -0.24156263 0.07291573 -0.08062763 -0.1954618 -0.29571712
-0.02918768 -0.2209463 -0.18806402 -0.24480945 -0.007095119 0.013961265 0.16234776 -0.12949048
-0.26462644 -0.17792465 -0.27551034 0.10426043 -0.24274947 -0.26352367 -0.16736464 -0.04925397
0.0908897 -0.05933454 0.092593975 -0.1217646 0.22035024 -0.13497187 -0.12752195 0.010029203
0.11123756 -0.07656016 -0.029496113 -0.21339883 -0.14165032 -0.017340325 -0.25458992 -0.24141026
-0.15746713 0.115624964 -0.14047083 -0.08193356 -0.09162184 -0.35813072 0.009613288 -0.22557959
-0.05447197 0.05114305 0.10057921 -0.23164436 0.04192561 -0.14248708 -0.119657554 -0.13657635
-0.18073817 0.15202375 0.023871813 -0.09410024 -0.34451663 -0.09588055 -0.34357676 0.019048205
