model_save/params_20240807_121407.pth (torch, 92275 bytes, 18 tensors)

fc1.weight f4 [300, 13]
-0.65161985 1.3824933 0.5539186 0.0951015 2.4739635 0.6936372 -0.4069986 -1.6976216
-1.2368357 -0.60077626 -2.4076974 -3.258533 -0.11582881 -0.530794 -0.4056859 -0.47161064
0.8753085 2.4095569 -0.42901155 0.13760634 -0.019069586 0.14084822 -0.46069658 -2.4620626
0.3859257 0.08951551 -0.07419633 0.5679244 0.7226508 0.01991149 -0.3324139 0.44129395
-0.38654342 -0.72580737 -1.0527954 -0.14752819 0.6409229 -1.0414265 0.19526416 -0.20351207
0.21676907 0.25241628 -0.095373586 0.2535573 -0.03676696 -0.2559673 -0.043069407 0.20230412
0.24830177 0.23775056 -0.2532579 0.023922533 -0.039066277 0.5229953 -1.0317224 -1.009425
2.946951 0.14395319 -0.44922712 -0.28040242 -0.015739435 0.14777628 -3.1811435 -0.41958004
0.17326275 -1.7646356 -1.5761617 0.27528554 -0.6205497 -1.9244419 0.5685732 -0.2384593
1.1275115 -0.68666124 -0.19204383 1.9792529 -1.1268007 0.19190225 -0.13668603 -0.3706005
0.81662524 0.9122929 2.6812398 -0.05650775 -0.21693762 0.49174595 -1.0312607 -0.84281766
-2.6769562 -0.42415476 -0.1919758 -0.18591715 1.7690257 -0.19510618 1.6958653 -2.9094212
-0.5408274 -0.378365 -1.9038272 -0.13120793 -1.5962657 2.928528 0.43802562 -0.18997085
-0.11709747 0.08421764 -0.22386892 -0.00739643 -0.081753895 0.19977081 0.07656613 0.08518103
-0.05084093 0.20357677 -0.04180403 0.11262381 0.26842025 0.014501908 0.1458004 1.013596
0.897692 -2.386362 -0.13230112 -0.36531764 -0.17051591 -0.92256093 -2.6973705 2.4409409
-0.10577176 -0.06661673 0.073885724 -0.15985332 -0.1413419 0.18973847 -0.2113656 0.029765112
0.005063554 -0.13129312 0.13015583 0.16755262 0.07142993 -0.021633279 -0.27211982 0.34176642
-0.4244662 0.48056427 0.12825555 0.68894255 0.09245894 -0.47375387 0.37813005 -0.5960201
-0.16598251 -0.4376204 -0.551278 -0.24813129 -0.23425423 0.12575407 0.34784168 -0.828803
0.5945838 -0.025996318 -0.46032968 -0.39813456 -0.5994093 0.14988443 -1.034586 -0.1367193
0.2695584 -0.14881606 -0.067052856 0.41641122 -0.22549376 -0.410597 -0.13924205 -0.23120128
-0.27934295 -0.1184699 -0.30971065 0.11732501 -0.35017544 -0.10101259 -0.64829034 -0.5115635
1.1166735 1.3589942 -0.8836036 -0.57624555 0.24391343 0.54407984 -0.8118367 -1.4660485
0.9170271 0.16358571 -0.02208203 0.1806619 0.23176186 -0.20146842 0.13034077 -0.24148448
0.14264219 0.10650712 0.15834883 -0.13429146 0.098154075 -0.19916016 0.17791055 0.10430339
-1.3586038 0.5652084 0.74282587 0.63955796 -0.92370874 0.7906865 0.40995935 -0.62809956
-0.29896948 0.1627342 0.69840795 -2.197353 -0.27654648 -0.11843502 0.24278125 -0.17497578
0.22048195 0.14373635 0.123674095 0.19654992 0.28535944 0.036855932 0.09767835 0.30234224
-0.24601586 0.26220647 -0.020420676 -0.7572174 1.107553 -0.90407914 -1.1855632 -0.20851901
-1.1119301 0.33416325 -0.96884704 0.40567544 1.3631239 -0.71965176 -0.16382298 -0.8226497
1.092267 1.3521438 0.79164016 0.37363854 1.0319107 0.08907794 -0.982281 -1.3334571
00000000: 8fd0 26bf 8af5 b03f 9ccd 0d3f 93c4 c23d
00000010: 6b55 1e40 3592 313f 1f62 d0be aa4b d9bf
00000020: a250 9ebf 79cc 19bf b717 1ac0 ce8b 50c0
00000030: a837 edbd 1ee2 07bf 10b6 cfbe f376 f1be
00000040: 3814 603f 2e36 1a40 67a7 dbbe ade8 0c3e
00000050: d237 9cbc 843a 103e 6ce0 ebbe 6f92 1dc0
00000060: 0e98 c53e e853 b73d 3ff4 97bd 7e63 113f
00000070: a5ff 383f 6c1d a33c 2832 aabe 48f1 e13e
00000080: 05e9 c5be 83ce 39bf 00c2 86bf a111 17be
00000090: 8613 243f 774d 85bf 54f3 473e 7865 50be
000000a0: b6f8 5d3e b53c 813e 3a53 c3bd 43d2 813e
000000b0: f498 16bd 250e 83be 8c69 30bd d028 4f3e
000000c0: d242 7e3e e274 733e 05ab 81be 30f9 c33c
000000d0: f603 20bd 05e3 053f 7b0f 84bf d734 81bf
000000e0: d89a 3c40 7768 133e 1901 e6be e890 8fbe
000000f0: fdef 80bc aa52 173e db97 4bc0 32d3 d6be
00000100: ca6b 313e 94df e1bf abbf c9bf 3af2 8c3e
00000110: 58dc 1ebf 1d54 f6bf 038e 113f ad2e 74be
00000120: 4c52 903f 08c9 2fbf 23a7 44be 2958 fd3f
00000130: 013b 90bf 0682 443e 6cf7 0bbe 59bf bdbe
00000140: 5a0e 513f 078c 693f 6f99 2b40 ac74 67bd
00000150: e524 5ebe 20c6 fb3e 5a00 84bf e6c2 57bf
00000160: 4053 2bc0 d02a d9be 4e95 44be 1161 3ebe
00000170: 6f6f e23f eac9 47be 1d12 d93f f533 3ac0
00000180: aa73 0abf 0fb9 c1be 9cb0 f3bf 5f5b 06be
00000190: 6f52 ccbf 016d 3b40 e544 e03e b887 42be
000001a0: ccd0 efbd 4c7a ac3d e53d 65be c05d f2bb
000001b0: 966e a7bd b890 4c3e b4ce 9c3d 6473 ae3d
000001c0: 943e 50bd 6e76 503e b43a 2bbd 50a7 e63d
000001d0: 616e 893e 6999 6d3c b34c 153e 84bd 813f
000001e0: 25cf 653f 28ba 18c0 f279 07be ea0a bbbe
000001f0: b99b 2ebe f42c 6cbf b8a1 2cc0 6038 1c40
00000200: dd9e d8bd 5a6e 88bd 6651 973d 97b0 23be
00000210: eebb 10be cd4a 423e 3970 58be f7d5 f33c
00000220: 2bec a53b b471 06be 9247 053e ea92 2b3e
00000230: db49 923d 4638 b1bc 4a53 8bbe 02fc ae3e
00000240: a253 d9be 850c f63e 6c55 033e 8a5e 303f
00000250: 1d5b bd3d de8f f2be 439a c13e c694 18bf
00000260: 52f7 29be c80f e0be 8e20 0dbf 2116 7ebe
00000270: 57e0 6fbe adc5 003e 4e18 b23e 6f2c 54bf
00000280: a536 183f 3bf6 d4bc 55b0 ebbe 4bd8 cbbe
00000290: e372 19bf 4e7b 193e 506d 84bf 2500 0cbe
000002a0: 8f03 8a3e 3d63 18be 0253 89bd da33 d53e
000002b0: d6e7 66be c539 d2be 7895 0ebe 07c0 6cbe
000002c0: 0a06 8fbe 59a0 f2bd 6592 9ebe 1848 f03d
000002d0: 324a b3be b0df cebd 5bf6 25bf d3f5 02bf
000002e0: 28ef 8e3f 86f3 ad3f d833 62bf d484 13bf
000002f0: 71c4 793e d148 0b3f 88d4 4fbf 7aa7 bbbf
00000300: 4ac2 6a3f 0383 273e 60e5 b4bc 6fff 383e
00000310: fb52 6d3e bd4d 4ebe 0d78 053e b547 77be
00000320: cb10 123e 6820 da3d 3226 223e b383 09be
00000330: 0105 c93d a4f0 4bbe 2f2e 363e 049d d53d
00000340: bbe6 adbf 7fb1 103f d629 3e3f 12ba 233f
00000350: 2d78 6cbf 6e6a 4a3f 31e6 d13e 22cb 20bf
00000360: 8712 99be cba3 263e ddca 323f 6ea1 0cc0
00000370: 8097 8dbe 0f8e f2bd a69b 783e da2c 33be
00000380: 05c6 613e 9f2f 133e d848 fd3d 6244 493e
00000390: a21a 923e 3ff6 163d 960b c83d 9acc 9a3e
000003a0: 95eb 7bbe ed3f 863e 4349 a7bc 00d9 41bf
000003b0: 4cc4 8d3f bb71 67bf 89c0 97bf 0286 55be
000003c0: ba53 8ebf 7217 ab3e 5c06 78bf b1b4 cf3e
000003d0: d87a ae3f 193b 38bf 36c1 27be 2c99 52bf
000003e0: 68cf 8b3f 0c13 ad3f eea8 4a3f 8d4d bf3e
000003f0: a615 843f 7f6e b63d c576 7bbf b9ae aabf

fc1.bias f4 [300]
-0.5501619 0.12493082 -0.30490786 -0.1892193 -0.41629744 -0.417748 -0.23437506 -0.12660494
-0.2625577 -0.4790713 -0.18472484 -0.20326231 -0.51114327 -0.091603704 -0.2823223 -0.11294736
-0.07878459 -0.16307233 -0.6336285 0.00024365494 -0.18351354 -0.14337806 -0.10432806 0.17608525
-0.1516532 -0.07793168 -0.22882062 -0.58140844 -0.20706122 0.18514462 -0.13336663 -0.21914366
-0.45321912 -0.25899336 -0.13902321 -0.042082805 -0.23573248 -0.063815966 -0.18983275 -0.12567824
-0.10561113 -0.17979467 -0.05711365 -0.17303368 -0.21958046 0.28703678 -0.11042679 -0.2509785
-0.10754878 0.06439093 0.012217398 -0.2659746 -0.22343145 -0.38570428 -0.15871239 -0.2138243
-0.29919752 0.26254475 -0.3527582 0.015360368 -0.102021396 -0.4430861 -0.008142312 -0.41318858
-0.26474 -0.23196316 0.23233178 -0.04316588 -0.33381766 -0.2734355 -0.30253232 -0.2306933
-0.48591805 -0.24562636 -0.06714305 -0.2645232 -0.19478849 -0.1545606 -0.24336597 -0.2526038
-0.1979108 -0.116878256 -0.303609 -0.10857702 -0.22413845 -0.12786669 0.008442476 -0.17332149
0.059248026 -0.32516062 -0.13089384 -0.36408415 -0.1916016 -0.19842872 -0.22140142 0.10906555
0.20875575 0.11607014 -0.0982309 -0.28558695 -0.39116248 -0.21769558 -0.005620065 -0.22779006
-0.12738217 0.1583163 -0.17267281 -0.1601512 -0.13831653 -0.18132454 -0.051105168 -0.2792741
-0.31035367 0.17437984 0.29662633 -0.15292415 -0.24160331 -0.25005305 -0.13498734 -0.27656868
0.13899001 -0.1845473 0.055908587 -0.15129635 -0.14733972 0.104051515 -0.27655157 0.17445838
-0.17549695 0.016245978 -0.030968845 -0.19377501 -0.59660375 -0.23309608 -0.32795873 -0.28868183
-0.057972446 -0.06742187 -0.29051223 -0.143527 -0.055749282 -0.16510266 -0.45287046 -0.25466213
-0.18802686 -0.60570115 -0.25980708 -0.022309495 -0.05850274 -0.008372458 -0.26023036 0.10106918
-0.1389824 -0.36549833 -0.22873574 -0.3235499 -0.39373386 -0.35975406 0.21271491 -0.4972555
-0.19772683 -0.08344892 -0.20983374 -0.14902347 -0.37622637 -0.21617039 -0.02016879 -0.14675178
-0.02109427 0.047500964 -0.21539608 -0.13886887 0.060182154 -0.2834708 -0.20650378 0.12140668
0.0022077153 -0.42097396 -0.4583302 -0.15412727 -0.25161728 -0.9689223 -0.24133936 -0.26955914
-0.08465181 0.19678207 -0.10824455 -0.3085863 -0.2580556 -0.20138833 -0.3612653 -0.15425459
-0.21447018 -0.14131121 -0.228404 -0.21883717 -0.6430261 -0.6263702 -0.17714162 -0.14799048
-0.30686542 -0.10191168 -0.1768105 -0.12661274 -0.082309134 -0.27701828 0.14291966 -0.020452214
-0.19914651 -0.07484147 -0.17489764 0.29827145 -0.13296591 -0.09743691 -0.040782645 -0.13724886
-0.14636259 -0.25180033 -0.038513362 -0.26328996 -0.09236124 0.05383268 -0.27144158 0.121812634
-0.17193304 -0.15389638 0.06441695 -0.32774645 -0.06571396 -0.014369795 -0.11358886 -0.109035075
-0.4711716 -0.2443023 -0.13052617 -0.10477507 -0.21087924 -0.075708374 -0.23245564 -0.19600828
-0.20771448 -0.45535663 -0.3091368 -0.35019535 -0.08975001 0.18227611 -0.14611615 0.22134773
0.07786269 -0.39006433 -0.14794084 -0.15782113 -0.2763684 -0.14730272 -0.25891975 0.14196129
00000000: 69d7 0cbf bbdb ff3d e21c 9cbe b4c2 41be
00000010: f024 d5be 11e3 d5be 0400 70be baa4 01be
00000020: f66d 86be d548 f5be 8228 3dbe ff23 50be
00000030: 49da 02bf b99a bbbd 8c8c 90be f250 e7bd
00000040: d159 a1bd 6ffc 26be 7a35 22bf a07d 7f39
00000050: f9ea 3bbe b3d1 12be f3a9 d5bd b14f 343e
00000060: fa4a 1bbe a59a 9fbd f44f 6abe 2fd7 14bf
00000070: db07 54be 8d96 3d3e 4391 08be 3267 60be
00000080: 560c e8be c79a 84be 1a5c 0ebe 055f 2cbd
00000090: db63 71be f2b1 82bd 8463 42be ccb1 00be
000000a0: a64a d8bd 181c 38be 01f0 69bd be2f 31be
000000b0: b3d9 60be 7cf6 923e 7127 e2bd 4180 80be
000000c0: 8942 dcbd 64df 833d 7b2b 483c d32d 88be
000000d0: 37cb 64be 087b c5be 8085 22be c2f4 5abe
000000e0: 6b30 99be 446c 863e b99c b4be 0eaa 7b3c
000000f0: 98f0 d0bd 2edc e2be 5567 05bc 748d d3be
00000100: 008c 87be c087 6dbe 62e8 6d3e b5ce 30bd
00000110: 26ea aabe bdff 8bbe 84e5 9abe dd3a 6cbe
00000120: 40ca f8be 7a85 7bbe 4c82 89bd 966f 87be
00000130: a276 47be 2245 1ebe ee34 79be 4955 81be
00000140: 21a9 4abe de5d efbd a472 9bbe a15d debd
00000150: 8d84 65be 7cef 02be 5052 0a3c 307b 31be
00000160: 0fae 723d 747b a6be 0909 06be 3d69 babe
00000170: 3633 44be e630 4bbe 0eb7 62be c25d df3d
00000180: 11c4 553e 2eb6 ed3d 482d c9bd 7438 92be
00000190: 7346 c8be 97eb 5ebe 8628 b8bb cc41 69be
000001a0: 7970 02be ab1d 223e 24d1 30be adfe 23be
000001b0: d9a2 0dbe 24ad 39be a753 51bd 04fd 8ebe
000001c0: ade6 9ebe a190 323e 68df 973e 2698 1cbe
000001d0: dc66 77be f406 80be 1f3a 0abe 699a 8dbe
000001e0: 6653 0e3e f8f9 3cbe 6700 653d 6eed 1abe
000001f0: 39e0 16be f618 d53d 2b98 8dbe 38a5 323e
00000200: 79b5 33be 4916 853c 60b2 fdbc f56c 46be
00000210: 06bb 18bf bdb0 6ebe 35ea a7be 1bce 93be
00000220: 8474 6dbd 7a14 8abd 05be 94be bef8 12be
00000230: 5c59 64bd ac10 29be a3de e7be 1363 82be
00000240: 1d8a 40be 3b0f 1bbf 6f05 85be 67c2 b6bc
00000250: 92a0 6fbd a22c 09bc ea3c 85be 5cfd ce3d
00000260: 6751 0ebe 9922 bbbe b439 6abe 55a8 a5be
00000270: 7c97 c9be af31 b8be f0d1 593e 4698 febe
00000280: e778 4abe 44e7 aabd a8de 56be 9c99 18be
00000290: bea0 c0be c55b 5dbe 0539 a5bc 1946 16be
000002a0: e4cd acbc 5f90 423d ca90 5cbe a433 0ebe
000002b0: 9081 763d 1623 91be ba75 53be 11a4 f83d
000002c0: 51af 103b e689 d7be 42aa eabe 8ad3 1dbe
000002d0: fbd3 80be 4b0b 78bf aa21 77be a803 8abe
000002e0: ee5d adbd 3d81 493e 52af ddbd 06ff 9dbe
000002f0: dd1f 84be be38 4ebe c4f7 b8be eaf4 1dbe
00000300: 129e 5bbe e3b3 10be bde2 69be da16 60be
00000310: 5c9d 24bf cc59 20bf 9d64 35be d18a 17be
00000320: 771d 9dbe 12b7 d0bd d00d 35be c5a6 01be
00000330: b191 a8bd 57d5 8dbe 8859 123e 678b a7bc
00000340: 10ed 4bbe 7c46 99bd 5e18 33be 09b7 983e
00000350: 3728 08be 018d c7bd b40b 27bd f78a 0cbe
00000360: 13e0 15be f9eb 80be 30c0 1dbd f1cd 86be
00000370: e427 bdbd a87f 5c3d 64fa 8abe e778 f93d
00000380: 370f 30be 0397 1dbe 09ed 833d 62ce a7be
00000390: 0a95 86bd 4a6f 6bbc 47a1 e8bd c84d dfbd
000003a0: 673d f1be 622a 7abe a7a8 05be 5094 d6bd
000003b0: baf0 57be fe0c 9bbd da08 6ebe 65b6 48be
000003c0: 1bb3 54be 8124 e9be 2e47 9ebe ce4c b3be
000003d0: dace b7bd 97a6 3a3e 799f 15be fba8 623e
000003e0: 7976 9f3d 83b6 c7be ce7d 17be dd9b 21be
000003f0: 2980 8dbe 86d6 16be 2191 84be 4d5e 113e

fc2.weight f4 [3, 300]
-2.8118396 -0.6991288 0.4598562 0.010977276 2.4655895 -1.1124439 -1.0334067 1.3978857
-0.027267037 -0.7793637 0.016741212 -0.08386495 0.40202102 0.040749084 -0.13078724 0.038852517
-0.9530293 0.032987565 1.0974855 -0.7773564 -2.5374591 -0.37624058 -0.04982207 -0.6251953
0.01858528 0.5806859 -0.04532235 1.5045942 1.6419481 1.6569334 0.013277501 0.02068442
-2.2358398 -0.029669551 0.53821486 1.3394948 -0.036549956 0.0023984218 -0.37814832 -0.0025894707
0.9699572 -0.030959437 -0.90243345 0.78023595 -0.027592672 0.45976692 -0.021661546 0.00702662
-0.19529155 -0.25678685 0.024603084 0.02947601 -0.15931912 1.689917 -0.07158742 0.12711811
-1.1721107 1.2858655 0.42555285 -1.8063524 0.0021329299 0.3989459 -0.6494003 -4.7495284
-0.1751599 -0.0203337 -1.491626 0.0065775174 -0.9787133 0.58674526 -1.2313881 0.01150272
-0.85679823 -0.015893843 -0.043599978 0.03006433 -0.04178799 0.03864909 0.044894226 -4.815266
-0.26786497 -0.008005861 0.0662479 -0.085304126 -0.07742424 0.0233149 -0.007214553 -0.17675664
-0.9954256 1.3426785 0.004657794 1.1865176 -0.026558818 -0.023340024 0.0019590408 0.66771436
0.50326705 -0.3694426 -0.015318219 1.5182436 -0.1726593 -0.053747468 3.3697033 -0.2189438
-1.1316841 0.4840809 0.028310299 0.054492347 3.24421 -0.13649955 0.009498387 0.7184164
1.9156398 0.39881337 -0.138391 0.025803622 -1.3093708 -0.026976071 0.0056118295 0.026724994
-1.3829424 -0.024673335 -1.0714786 0.056363963 0.13333032 -1.7066166 -0.039983597 0.12551954
-0.026287198 0.034717344 -0.05765255 -0.3990153 0.45005196 0.62901217 5.52651 0.04953408
0.05588671 -0.050335333 -2.0177493 0.00431126 -0.049130864 -0.02379439 -5.3690867 -0.047857367
0.05653914 -1.0900884 0.00463482 0.036699492 -0.7800132 -0.09706284 0.041854173 0.08518521
0.019694246 -2.7734857 0.022121117 0.61956286 0.07365557 -0.72009265 -0.98072207 0.63750434
-0.048553497 -0.0030079857 -0.01932431 -0.0071772262 2.508599 0.22822982 0.2773185 0.053884692
-0.071228236 -1.564196 -0.009398639 -0.015809463 0.38625506 -0.05994626 -0.024735786 -1.2318857
-0.8858693 0.031190038 2.0004363 -0.024501134 -0.027111039 -2.621803 -0.03717801 -0.03217705
0.05110407 0.78964 0.14516704 -1.3731083 -0.002455689 -1.2478539 -1.426346 -0.04119852
0.008749962 -2.0722315 0.006862454 0.012166128 -0.2553875 1.5228642 -0.04517364 0.5121815
-0.47904262 -1.9300648 -0.013851326 0.0007964745 -1.1782923 -1.4837728 -1.424116 -0.71422315
0.025947817 -0.045491338 -2.3367136 -0.666724 0.046479043 0.027596883 -2.5157127 2.033673
-0.023783501 0.05434212 3.379642 0.039140314 0.7389121 0.6643203 -0.0038798675 -1.3048867
-0.09035336 0.07839254 -0.75798094 0.20256914 0.0075827315 1.2694669 1.1866746 1.5289583
0.24464643 -0.21687454 -0.10782113 0.0314668 0.049128003 -0.05662441 -0.021509267 0.03488794
-0.0030300766 4.294363 -0.07769129 0.7423352 -0.6825456 0.7528776 0.59739137 0.68477964
1.8614446 2.055877 -0.053801388 -0.0013312586 0.061416246 2.0107431 -0.19100481 -1.1509181
00000000: 2ef5 33c0 1bfa 32bf 4672 eb3e 08da 333c
00000010: 38cc 1d40 9064 8ebf ac46 84bf ebed b23f
00000020: 1f5f dfbc 6184 47bf de24 893c 63c1 abbd
00000030: b3d5 cd3e 83e8 263d 17ed 05be d123 1f3d
00000040: baf9 73bf f81d 073d 687a 8c3f d400 47bf
00000050: bb65 22c0 9ba2 c0be 3a12 4cbd cd0c 20bf
00000060: 2840 983c d5a7 143f eea3 39bd 8b96 c03f
00000070: 5b2b d23f 6516 d43f e089 593c 5f72 a93c
00000080: 0018 0fc0 8f0d f3bc 73c8 093f 9174 ab3f
00000090: 68b5 15bd d72e 1d3b a89c c1be 1cb4 29bb
000000a0: 1d4f 783f a59e fdbc e105 67bf 8bbd 473f
000000b0: 070a e2bc 9266 eb3e 8e73 b1bc 903f e63b
000000c0: 82fa 47be 9179 83be 688c c93c ac77 f13c
000000d0: 8d24 23be 334f d83f 6d9c 92bd 402b 023e
000000e0: b907 96bf 3e97 a43f 10e2 d93e 8e36 e7bf
000000f0: a0c8 0b3b a342 cc3e 193f 26bf 23fc 97c0
00000100: 1e5d 33be dc92 a6bc 9aed bebf 3788 d73b
00000110: f48c 7abf f034 163f 209e 9dbf e875 3c3c
00000120: 2157 5bbf ce33 82bc e495 32bd 7849 f63c
00000130: e229 2bbd 824e 1e3d 02e3 373d a916 9ac0
00000140: 9925 89be 042b 03bc fbac 873d eeb3 aebd
00000150: 9a90 9ebd e4fe be3c 0f68 ecbb b1ff 34be
00000160: 36d4 7ebf e4dc ab3f 68a0 983b cfdf 973f
00000170: e191 d9bc 9433 bfbc 4063 003b 54ef 2a3f
00000180: 1cd6 003f 9527 bdbe 44f9 7abc ce55 c23f
00000190: 99cd 30be 4e26 5cbd 38a9 5740 ce32 60be
000001a0: 06db 90bf 74d9 f73e 00eb e73c 5e33 5f3d
000001b0: 23a1 4f40 8ac6 0bbe 1f9f 1b3c 23ea 373f
000001c0: af33 f53f 4431 cc3e 5fb6 0dbe 1e62 d33c
000001d0: 7699 a7bf ecfc dcbc 70e3 b73b 60ee da3c
000001e0: 4204 b1bf bc1f cabc 3626 89bf e6dd 663d
000001f0: be87 083e 6a72 dabf d7c5 23bd 3288 003e
00000200: 4058 d7bc c633 0e3d 1525 6cbd bc4b ccbe
00000210: 366d e63e f106 213f 2bd9 b040 3fe4 4a3d
00000220: 76e9 643d 6c2c 4ebd ce22 01c0 7845 8d3b
00000230: 723d 49bd 74ec c2bc 8fcf abc0 1606 44bd
00000240: 9695 673d 0488 8bbf b0df 973b 3552 163d
00000250: f2ae 47bf e2c8 c6bd 486f 2b3d 9575 ae3d
00000260: d455 a13c ca80 31c0 5837 b53c ac9b 1e3f
00000270: bbd8 963d fe57 38bf 9a10 7bbf 7c33 233f
00000280: 08e0 46bd a021 45bb 044e 9ebc f02e ebbb
00000290: e38c 2040 14b5 693e b1fc 8d3e 32b6 5c3d
000002a0: 1ce0 91bd 9337 c8bf c0fc 19bc d982 81bc
000002b0: 39c3 c53e 368a 75bd b4a2 cabc 6eae 9dbf
000002c0: 55c8 62bf 4082 ff3c 2607 0040 9ab6 c8bc
000002d0: f817 debc 9fcb 27c0 f847 18bd 15cc 03bd
000002e0: 8052 513d d925 4a3f aba6 143e 03c2 afbf
000002f0: a0ef 20bb adb9 9fbf 8192 b6bf c8bf 28bd
00000300: 005c 0f3c 719f 04c0 70de e03b 7054 473c
00000310: 27c2 82be 37ed c23f ff07 39bd 541e 033f
00000320: 1345 f5be 5d0c f7bf acf0 62bc 80ca 503a
00000330: 48d2 96bf 44ec bdbf 6f49 b6bf 54d7 36bf
00000340: 8490 d43c 2055 3abd b78c 15c0 6dae 2abf
00000350: cf60 3e3d dc12 e23c 7001 21c0 b327 0240
00000360: 9ed5 c2bc d895 5e3d 0e4c 5840 9851 203d
00000370: 5829 3d3f e510 2a3f 6045 7ebb 8706 a7bf
00000380: 2f0b b9bd 458c a03d 0a0b 42bf 496e 4f3e
00000390: 9078 f83b e47d a23f f4e4 973f e8b4 c33f
000003a0: 9884 7a3e 5c14 5ebe 53d1 dcbd 55e3 003d
000003b0: 723a 493d ffee 67bd 3434 b0bc a8e6 0e3d
000003c0: 4094 46bb 6c6b 8940 9c1c 9fbd ae09 3e3f
000003d0: 4fbb 2ebf 96bc 403f a4ee 183f b84d 2f3f
000003e0: d143 ee3f 7d93 0340 d85e 5cbd a07d aeba
000003f0: 9a8f 7b3d 04b0 0040 c496 43be 4951 93bf

fc2.bias f4 [3]
0.112504594 -0.029552372 0.045249086
00000000: cf68 e63d d117 f2bc 1b57 393d

fc1.weight f4 [300, 13]
-0.6508318 1.3801378 0.55773574 0.096847855 2.4676247 0.69551367 -0.40709502 -1.6952672
-1.240824 -0.6012392 -2.4013593 -3.2657049 -0.11582881 -0.5268176 -0.40352926 -0.46072233
0.8748399 2.4137232 -0.42159155 0.13425063 -0.021226397 0.1366123 -0.46151063 -2.466229
0.38189772 0.08951551 -0.07419705 0.5679285 0.7226563 0.019911602 -0.3324169 0.44129682
-0.38654098 -0.7258094 -1.052792 -0.14752686 0.64092636 -1.0414312 0.19526426 -0.20351207
0.21676907 0.25241628 -0.095373586 0.2535573 -0.036766976 -0.2559673 -0.04306943 0.20230412
0.24830177 0.23775056 -0.2532579 0.023922533 -0.043804318 0.51476806 -1.0361351 -1.0146903
2.9417977 0.14137705 -0.449429 -0.2721755 -0.015864857 0.14869016 -3.1759875 -0.41961873
0.17326275 -1.7489427 -1.5661913 0.26401877 -0.6035045 -1.9159311 0.557679 -0.25494692
1.1175436 -0.7006514 -0.21074411 1.9707432 -1.1309342 0.19190225 -0.12375137 -0.37913916
0.8338886 0.92862266 2.6813889 -0.041603025 -0.2021893 0.5002798 -1.020878 -0.83565176
-2.6771061 -0.4212416 -0.1919758 -0.19040911 1.7676979 -0.19998394 1.693214 -2.9047215
-0.5551138 -0.3796035 -1.9025 -0.1318553 -1.5989672 2.9238303 0.4423344 -0.18997085
-0.117097534 0.08421764 -0.22386892 -0.00739643 -0.081753895 0.19977081 0.07656613 0.08518103
-0.05084093 0.20357677 -0.04180403 0.11262381 0.26842025 0.018162059 0.14624622 1.0177729
0.9018846 -2.3872964 -0.12799367 -0.36152726 -0.17096153 -0.91980845 -2.6976275 2.4418752
-0.10426114 -0.06661673 0.07388636 -0.15985459 -0.14134286 0.1897389 -0.21136646 0.029765006
0.005063582 -0.13129203 0.13015655 0.16755402 0.071430646 -0.021633249 -0.27211982 0.34176886
-0.42446446 0.48056737 0.12825665 0.6889439 0.09245918 -0.4737516 0.37812778 -0.5960202
-0.16598196 -0.4376222 -0.55127496 -0.24813129 -0.23425466 0.12575512 0.3478426 -0.82880634
0.59458965 -0.025996312 -0.4603286 -0.39813703 -0.59940577 0.1498857 -1.0345886 -0.13671903
0.2695584 -0.14881581 -0.06705342 0.41641185 -0.22549279 -0.4105974 -0.1392418 -0.23120143
-0.2793419 -0.11846994 -0.3097105 0.11732552 -0.35017318 -0.10101259 -0.6485084 -0.5122425
1.1175243 1.3602384 -0.8788193 -0.5735625 0.24690191 0.54475844 -0.80970544 -1.4624082
0.91224474 0.16367128 -0.02208203 0.18066259 0.23176171 -0.2014691 0.13034132 -0.24148472
0.14264373 0.106507264 0.15834957 -0.13429014 0.09815441 -0.19915943 0.17791183 0.10430339
-1.3588701 0.58143467 0.7356415 0.63650244 -0.91665375 0.78668857 0.40511468 -0.6443245
-0.30003133 0.15914768 0.6913536 -2.1988661 -0.27654648 -0.11843566 0.24278261 -0.17497483
0.22048153 0.14373748 0.12367491 0.19655022 0.28535903 0.036856007 0.09767906 0.3023404
-0.24601468 0.26220647 -0.02042085 -0.7572211 1.1075566 -0.9040811 -1.1855673 -0.20851886
-1.1119198 0.3341663 -0.96884763 0.40567702 1.3631296 -0.7196523 -0.16382298 -0.82004106
1.0852797 1.3536816 0.79172534 0.37515557 1.0300773 0.08465753 -0.975295 -1.3420898
00000000: ea9c 26bf 5ba8 b03f c5c7 0e3f 2b58 c63d
00000010: 90ed 1d40 2f0d 323f c26e d0be 84fe d8bf
00000020: 52d3 9ebf d0ea 19bf dfaf 19c0 4f01 51c0
00000030: a837 edbd 85dd 06bf 639b cebe cce3 ebbe
00000040: 82f5 5f3f 717a 1a40 d9da d7be ff78 093e
00000050: fbe2 adbc 18e4 0b3e 1f4b ecbe b2d6 1dc0
00000060: 1988 c33e e853 b73d 9ff4 97bd c363 113f
00000070: 0100 393f a81d a33c 8c32 aabe a8f1 e13e
00000080: b3e8 c5be a5ce 39bf e3c1 86bf 4811 17be
00000090: c013 243f 9e4d 85bf 5bf3 473e 7865 50be
000000a0: b6f8 5d3e b53c 813e 3a53 c3bd 43d2 813e
000000b0: f898 16bd 250e 83be 9269 30bd d028 4f3e
000000c0: d242 7e3e e274 733e 05ab 81be 30f9 c33c
000000d0: 286c 33bd d7c7 033f 13a0 84bf 5fe1 81bf
000000e0: 6a46 3c40 25c5 103e 8f1b e6be 965a 8bbe
000000f0: 04f7 81bc 3c42 183e 6143 4bc0 44d8 d6be
00000100: ca6b 313e 5bdd dfbf f578 c8bf 782d 873e
00000110: 457f 1abf 3b3d f5bf 0dc4 0e3f 6788 82be
00000120: ab0b 8f3f e45d 33bf 4ecd 57be 5041 fc3f
00000130: 74c2 90bf 0682 443e 5c71 fdbd 871e c2be
00000140: b979 553f 37ba 6d3f e09b 2b40 ef67 2abd
00000150: b60a 4fbe 5612 003f 21ac 82bf 46ed 55bf
00000160: b555 2bc0 fbac d7be 4e95 44be 9bfa 42be
00000170: ed43 e23f 97c8 4cbe 3dbb d83f f5e6 39c0
00000180: f01b 0ebf 645b c2be 1f85 f3bf 1305 07be
00000190: f5aa ccbf 0920 3b40 a879 e23e b887 42be
000001a0: d5d0 efbd 4c7a ac3d e53d 65be c05d f2bb
000001b0: 966e a7bd b890 4c3e b4ce 9c3d 6473 ae3d
000001c0: 943e 50bd 6e76 503e b43a 2bbd 50a7 e63d
000001d0: 616e 893e 99c8 943c 92c1 153e 6246 823f
000001e0: e9e1 663f 77c9 18c0 c610 03be 1a1a b9be
000001f0: 8a10 2fbe 9178 6bbf eea5 2cc0 af47 1c40
00000200: dd86 d5bd 5a6e 88bd bb51 973d ecb0 23be
00000210: 2fbc 10be ea4a 423e 7370 58be bed5 f33c
00000220: 68ec a53b 6b71 06be c247 053e 4893 2b3e
00000230: 3b4a 923d 3638 b1bc 4a53 8bbe 54fc ae3e
00000240: 6853 d9be ed0c f63e b655 033e a15e 303f
00000250: 3d5b bd3d 928f f2be f799 c13e c894 18bf
00000260: 2df7 29be 0410 e0be 5b20 0dbf 2116 7ebe
00000270: 74e0 6fbe f3c5 003e 6d18 b23e a72c 54bf
00000280: 0737 183f 38f6 d4bc 31b0 ebbe 9ed8 cbbe
00000290: a872 19bf a37b 193e 666d 84bf 1300 0cbe
000002a0: 8f03 8a3e 2c63 18be 4e53 89bd ef33 d53e
000002b0: 95e7 66be d339 d2be 6795 0ebe 11c0 6cbe
000002c0: e705 8fbe 5ea0 f2bd 6092 9ebe 5d48 f03d
000002d0: e649 b3be b0df cebd a604 26bf 5322 03bf
000002e0: 090b 8f3f 4b1c ae3f 4dfa 60bf fed4 12bf
000002f0: dbd3 7c3e 4a75 0b3f db48 4fbf 3130 bbbf
00000300: df88 693f 7299 273e 60e5 b4bc 9dff 383e
00000310: f152 6d3e ea4d 4ebe 3278 053e c547 77be
00000320: 3311 123e 7b20 da3d 6426 223e 5b83 09be
00000330: 2e05 c93d 73f0 4bbe 852e 363e 049d d53d
00000340: 75ef adbf e7d8 143f 0053 3c3f d3f1 223f
00000350: d2a9 6abf 6c64 493f 316b cf3e 73f2 24bf
00000360: b59d 99be 9cf7 223e 8dfc 303f 39ba 0cc0
00000370: 8097 8dbe 658e f2bd 019c 783e 9a2c 33be
00000380: e9c5 613e eb2f 133e 4549 fd3d 7644 493e
00000390: 941a 923e 53f6 163d f60b c83d 5ccc 9a3e
000003a0: 46eb 7bbe ed3f 863e a049 a7bc 3ed9 41bf
000003b0: 6ac4 8d3f dc71 67bf abc0 97bf f885 55be
000003c0: 6353 8ebf d817 ab3e 6606 78bf e6b4 cf3e
000003d0: 087b ae3f 223b 38bf 36c1 27be 36ee 51bf
000003e0: 72ea 8a3f 7045 ad3f 83ae 4a3f 6414 c03e
000003f0: 93d9 833f ed60 ad3d efac 79bf 99c9 abbf

fc1.bias f4 [300]
-0.55008364 0.12404251 -0.30490637 -0.1892193 -0.41834825 -0.4319306 -0.2190248 -0.12957826
-0.2625577 -0.4751561 -0.18472466 -0.20326173 -0.51114315 -0.091603115 -0.28040513 -0.112946816
-0.08339249 -0.16307177 -0.63362485 -0.002573604 -0.20820278 -0.14337689 -0.10432798 0.17721182
-0.15165299 -0.08160641 -0.22882062 -0.58140516 -0.20263319 0.1909549 -0.13336663 -0.2191434
-0.4561051 -0.25899336 -0.13787471 -0.05104814 -0.23573248 -0.06381541 -0.18983279 -0.12567765
-0.10313786 -0.17979467 -0.057597376 -0.16978782 -0.21958046 0.29300278 -0.110426284 -0.2509785
-0.10754886 0.05542824 0.012217427 -0.2659746 -0.22343047 -0.39740008 -0.15871169 -0.21382368
-0.3002129 0.26909748 -0.35275704 0.011951612 -0.102021396 -0.44308499 -0.011807091 -0.39905962
-0.26473877 -0.23196316 0.22563875 -0.043165915 -0.33381763 -0.26967862 -0.30253112 -0.2306933
-0.49795726 -0.24562636 -0.066159844 -0.2645232 -0.19478849 -0.1545606 -0.24336597 -0.25806084
-0.19014613 -0.116878256 -0.303607 -0.10857704 -0.22413827 -0.12786669 0.008442493 -0.1733208
0.057962753 -0.31709608 -0.13089384 -0.36161494 -0.19160156 -0.19842872 -0.22140142 0.107217364
0.21203364 0.10841779 -0.0982309 -0.28338814 -0.39116034 -0.21769558 0.0069092293 -0.22778906
-0.12765698 0.160683 -0.1726726 -0.1601512 -0.13384953 -0.18132421 -0.05110489 -0.27660763
-0.31386325 0.17423332 0.29367122 -0.15292406 -0.24160245 -0.25005305 -0.13498734 -0.27656868
0.13412993 -0.18454733 0.050387293 -0.15129635 -0.1473391 0.105166644 -0.27655157 0.17285106
-0.17549695 0.023263155 -0.030968845 -0.19377415 -0.5965984 -0.23372883 -0.3080621 -0.28868198
-0.057972465 -0.06742187 -0.29419696 -0.1435259 -0.055749282 -0.1651028 -0.45834306 -0.25466213
-0.18802686 -0.6057 -0.25980708 -0.022309389 -0.05553898 -0.015770694 -0.26023036 0.10738791
-0.13898252 -0.3569153 -0.22873574 -0.32354775 -0.39373228 -0.35722 0.20731108 -0.49725372
-0.19772683 -0.08344892 -0.20983374 -0.14902347 -0.37183446 -0.21616912 -0.03254304 -0.14675178
-0.017736116 0.048179444 -0.21539608 -0.13299268 0.06244706 -0.28346956 -0.20650378 0.120998815
-0.0030589185 -0.41392303 -0.45832887 -0.15412727 -0.25161728 -0.96891916 -0.24133936 -0.26955914
-0.08465181 0.20158698 -0.108244 -0.31621096 -0.2580556 -0.19969393 -0.36486644 -0.15425459
-0.21447018 -0.14418113 -0.228404 -0.21883717 -0.64141667 -0.626365 -0.17714162 -0.15788195
-0.30686438 -0.10713501 -0.17681065 -0.12661158 -0.08092622 -0.27611506 0.13756448 -0.023157086
-0.19914651 -0.07484153 -0.1823999 0.29500368 -0.13296543 -0.09743693 -0.046474382 -0.13703382
-0.14636259 -0.25180033 -0.0373778 -0.26328996 -0.086300984 0.0576186 -0.27144158 0.11413617
-0.17193201 -0.15389562 0.05963369 -0.32774392 -0.06571396 -0.01623773 -0.116695374 -0.11579491
-0.47117072 -0.24430105 -0.13052611 -0.10477501 -0.21087924 -0.075708374 -0.23245564 -0.19600783
-0.20771448 -0.45638797 -0.30913532 -0.354105 -0.09494677 0.18779813 -0.14000575 0.22267246
0.08307705 -0.3900636 -0.14794084 -0.15782113 -0.27636763 -0.14890337 -0.25891837 0.13739124
00000000: 48d2 0cbf 000a fe3d b01c 9cbe b4c2 41be
00000010: be31 d6be 0226 ddbe 0a48 60be 2ab0 04be
00000020: f66d 86be a947 f3be 7628 3dbe d823 50be
00000030: 47da 02bf 6a9a bbbd 4391 8fbe a950 e7bd
00000040: afc9 aabd 49fc 26be 3d35 22bf e9a9 28bb
00000050: 1c33 55be 64d1 12be e8a9 d5bd 0477 353e
00000060: ec4a 1bbe 4321 a7bd f44f 6abe f8d6 14bf
00000070: 137f 4fbe ae89 433e 4391 08be 2167 60be
00000080: 9c86 e9be c79a 84be 072f 0dbe db17 51bd
00000090: db63 71be a7b1 82bd 8763 42be a4b1 00be
000000a0: f139 d3bd 181c 38be 3aeb 6bbd dcdc 2dbe
000000b0: b3d9 60be 7604 963e 2d27 e2bd 4180 80be
000000c0: 9442 dcbd b908 633d 9a2b 483c d32d 88be
000000d0: f5ca 64be 0678 cbbe 5185 22be 98f4 5abe
000000e0: 81b5 99be 25c7 893e 929c b4be b2d0 433c
000000f0: 98f0 d0bd 09dc e2be 8772 41bc 8b51 ccbe
00000100: d78b 87be c087 6dbe d80d 673e bece 30bd
00000110: 25ea aabe 5113 8abe 5ce5 9abe dd3a 6cbe
00000120: 41f4 febe 7a85 7bbe d07e 87bd 966f 87be
00000130: a276 47be 2245 1ebe ee34 79be 8d20 84be
00000140: abb5 42be de5d efbd 6072 9bbe a45d debd
00000150: 8184 65be 7cef 02be 6252 0a3c 027b 31be
00000160: 5a6a 6d3d 6b5a a2be 0909 06be 9825 b9be
00000170: 3333 44be e630 4bbe 0eb7 62be c794 db3d
00000180: 591f 593e 250a de3d 482d c9bd 4018 91be
00000190: 2b46 c8be 97eb 5ebe d166 e23b 8941 69be
000001a0: 83b8 02be 168a 243e 16d1 30be adfe 23be
000001b0: da0f 09be 0ead 39be 5c53 51bd 849f 8dbe
000001c0: afb2 a0be 386a 323e 135c 963e 2098 1cbe
000001d0: a266 77be f406 80be 1f3a 0abe 699a 8dbe
000001e0: 5b59 093e faf9 3cbe e862 4e3d 6eed 1abe
000001f0: 10e0 16be 9c61 d73d 2b98 8dbe deff 303e
00000200: 79b5 33be 5f92 be3c 60b2 fdbc bb6c 46be
00000210: acba 18bf 9c56 6fbe 51ba 9dbe 20ce 93be
00000220: 8974 6dbd 7a14 8abd fca0 96be 74f8 12be
00000230: 5c59 64bd b510 29be f1ab eabe 1363 82be
00000240: 1d8a 40be 280f 1bbf 6f05 85be 2ec2 b6bc
00000250: d77c 63bd 8b31 81bc ea3c 85be 31ee db3d
00000260: 6f51 0ebe 9abd b6be b439 6abe 0da8 a5be
00000270: 4797 c9be 8ae5 b6be 5b49 543e 0a98 febe
00000280: e778 4abe 44e7 aabd a8de 56be 9c99 18be
00000290: 1661 bebe 705b 5dbe da4b 05bd 1946 16be
000002a0: 554b 91bc cf57 453d ca90 5cbe 3c2f 08be
000002b0: 7dc8 7f3d ec22 91be ba75 53be 3ace f73d
000002c0: 2378 48bb b8ed d3be 15aa eabe 8ad3 1dbe
000002d0: fbd3 80be 160b 78bf aa21 77be a803 8abe
000002e0: ee5d adbd d16c 4e3e 08af ddbd 67e6 a1be
000002f0: dd1f 84be 917c 4cbe c6cf babe eaf4 1dbe
00000300: 129e 5bbe 38a4 13be bde2 69be da16 60be
00000310: e233 24bf 7559 20bf 9d64 35be ceab 21be
00000320: 541d 9dbe 9a69 dbbd da0d 35be 77a6 01be
00000330: a5bc a5bd f45e 8dbe b4dd 0c3e eeb3 bdbc
00000340: 10ed 4bbe 8446 99bd 0ac7 3abe b90a 973e
00000350: 1728 08be 038d c7bd ec5b 3ebd 9852 0cbe
00000360: 13e0 15be f9eb 80be 7719 19bd f1cd 86be
00000370: 92be b0bd 7b01 6c3d 64fa 8abe 39c0 e93d
00000380: f20e 30be d096 1dbe 7542 743d 0dce a7be
00000390: 0a95 86bd fd04 85bc fcfd eebd e225 edbd
000003a0: 4a3d f1be 0e2a 7abe a3a8 05be 4894 d6bd
000003b0: baf0 57be fe0c 9bbd da08 6ebe 47b6 48be
000003c0: 1bb3 54be afab e9be fc46 9ebe 404d b5be
000003d0: 7473 c2bd 274e 403e ab5d 0fbe 4004 643e
000003e0: 4d24 aa3d 6bb6 c7be ce7d 17be dd9b 21be
000003f0: 0f80 8dbe 207a 18be f390 84be 4ab0 0c3e

fc2.weight f4 [3, 300]
-2.811129 -0.6981165 0.45985475 0.0109772775 2.469415 -1.1044881 -1.040097 1.4030229
-0.027267037 -0.7775792 0.016741376 -0.083864935 0.4020203 0.040748943 -0.13415009 0.038852762
-0.94502693 0.03298766 1.0974953 -0.7727628 -2.532758 -0.37624127 -0.049822263 -0.6252958
0.018585397 0.5830542 -0.04532235 1.5045956 1.6466469 1.6606172 0.013277501 0.0206846
-2.2338097 -0.029669551 0.5448394 1.346077 -0.036549956 0.0023984255 -0.3781516 -0.0025894635
0.95803887 -0.030959437 -0.9061776 0.78371483 -0.027592672 0.46264523 -0.021661561 0.0070266263
-0.19529256 -0.25823787 0.024603236 0.02947601 -0.15931964 1.6931171 -0.071587116 0.12711969
-1.170456 1.289034 0.42555225 -1.8064893 0.0021329299 0.3989447 -0.6500387 -4.7546315
-0.1751596 -0.0203337 -1.4893193 0.0065775416 -0.9787181 0.58195543 -1.2313913 0.01150273
-0.85390383 -0.015893843 -0.03301725 0.030064333 -0.04178799 0.03864909 0.044894226 -4.8198824
-0.26530343 -0.008005861 0.066248015 -0.08530438 -0.0774239 0.0233149 -0.0072145206 -0.17675552
-0.9965406 1.3511343 0.004657794 1.1886781 -0.026558831 -0.023340024 0.0019590408 0.66565514
0.5071352 -0.3674479 -0.015318219 1.5261111 -0.17266066 -0.053747468 3.3660576 -0.21894373
-1.1343963 0.4872558 0.028310463 0.054492347 3.2443302 -0.13649997 0.009498335 0.7214026
1.9165585 0.40173307 -0.13893011 0.025803713 -1.3093781 -0.026976071 0.0056118295 0.026724994
-1.3823018 -0.024673335 -1.0669601 0.056363963 0.13332902 -1.707492 -0.039983597 0.12899548
-0.026287198 0.029527403 -0.05765255 -0.3990162 0.45005274 0.61662936 5.538419 0.0495343
0.05588671 -0.050335333 -2.0129614 0.0043113055 -0.049130864 -0.02379439 -5.3644357 -0.047857367
0.05653914 -1.0900806 0.00463482 0.036699545 -0.7761905 -0.09173552 0.041854173 0.08829163
0.019694246 -2.7819703 0.022121117 0.619564 0.0736554 -0.7204236 -0.98059595 0.63750505
-0.048553497 -0.0030079857 -0.01932431 -0.0071772262 2.50964 0.22823012 0.26963845 0.0538847
-0.0767649 -1.5658447 -0.009398639 -0.014175799 0.38508323 -0.059946496 -0.024735786 -1.2322552
-0.88205975 0.024443371 2.000447 -0.024501134 -0.027111039 -2.6217844 -0.03717801 -0.03217705
0.05110407 0.79219055 0.14516799 -1.3673081 -0.002455689 -1.2436882 -1.4222637 -0.04119852
0.008749962 -2.0759447 0.006862454 0.012166128 -0.26353884 1.5228585 -0.04517364 0.5116295
-0.47904447 -1.9280481 -0.013851326 0.0007964708 -1.1795741 -1.4963212 -1.4234958 -0.71521914
0.025947817 -0.045491338 -2.3354423 -0.6636695 0.046479184 0.02759707 -2.5247614 2.0406022
-0.023783501 0.054342166 3.3759582 0.039140314 0.7436464 0.664553 -0.0038798675 -1.304442
-0.090353645 0.07839248 -0.75672215 0.20257029 0.0075827315 1.2692355 1.1944119 1.529589
0.24464527 -0.21687394 -0.10782081 0.03146709 0.049128003 -0.05662441 -0.021509267 0.034887936
-0.0030300766 4.288775 -0.07769137 0.7359866 -0.6866201 0.757698 0.5918166 0.6901306
1.8672888 2.0558736 -0.053801388 -0.0013312586 0.061416127 1.9965425 -0.19100402 -1.1458731
00000000: 8ae9 33c0 c3b7 32bf 1572 eb3e 0ada 333c
00000010: e50a 1e40 de5f 8dbf e621 85bf 4196 b33f
00000020: 1f5f dfbc 6e0f 47bf 3625 893c 61c1 abbd
00000030: 9bd5 cd3e 5de8 263d a45e 09be 1324 1f3d
00000040: 49ed 71bf 121e 073d ba7a 8c3f c8d3 45bf
00000050: b518 22c0 b2a2 c0be 6e12 4cbd 6313 20bf
00000060: 6740 983c 0a43 153f eea3 39bd 9796 c03f
00000070: 53c5 d23f 1b8f d43f e089 593c c072 a93c
00000080: bdf6 0ec0 8f0d f3bc 987a 0b3f 404c ac3f
00000090: 68b5 15bd e72e 1d3b 169d c1be fdb3 29bb
000000a0: 0942 753f a59e fdbc 41fb 67bf 89a1 483f
000000b0: 070a e2bc d6df ec3e 9673 b1bc 9d3f e63b
000000c0: c6fa 47be c137 84be ba8c c93c ac77 f13c
000000d0: b024 23be 10b8 d83f 449c 92bd aa2b 023e
000000e0: 81d1 95bf 11ff a43f fce1 d93e 0b3b e7bf
000000f0: a0c8 0b3b 7b42 cc3e f068 26bf f125 98c0
00000100: 0a5d 33be dc92 a6bc 04a2 bebf 6b88 d73b
00000110: 458d 7abf 08fb 143f 3b9e 9dbf f275 3c3c
00000120: 7199 5abf ce33 82bc 193d 07bd 7a49 f63c
00000130: e229 2bbd 824e 1e3d 02e3 373d 7a3c 9ac0
00000140: dad5 87be 042b 03bc 0aad 873d 10b4 aebd
00000150: 6c90 9ebd e4fe be3c c967 ecbb 66ff 34be
00000160: 491d 7fbf f8f1 ac3f 68a0 983b 9b26 983f
00000170: e891 d9bc 9433 bfbc 4063 003b 6068 2a3f
00000180: 9dd3 013f 2222 bcbe 44f9 7abc 9c57 c33f
00000190: f5cd 30be 4e26 5cbd 7d6d 5740 c932 60be
000001a0: e633 91bf 9879 f93e 58eb e73c 5e33 5f3d
000001b0: 1ba3 4f40 a6c6 0bbe e89e 1b3c d7ad 383f
000001c0: ca51 f53f f5af cd3e b243 0ebe 4f62 d33c
000001d0: b499 a7bf ecfc dcbc 70e3 b73b 60ee da3c
000001e0: 44ef b0bf bc1f cabc 2692 88bf e6dd 663d
000001f0: 6787 083e 198f dabf d7c5 23bd 6417 043e
00000200: 4058 d7bc 74e3 f13c 1525 6cbd da4b ccbe
00000210: 506d e63e 6cdb 1d3f ba3a b140 7ae4 4a3d
00000220: 76e9 643d 6c2c 4ebd 5cd4 00c0 da45 8d3b
00000230: 723d 49bd 74ec c2bc 75a9 abc0 1606 44bd
00000240: 9695 673d c387 8bbf b0df 973b 4352 163d
00000250: 6cb4 46bf d5df bbbd 486f 2b3d 3ed2 b43d
00000260: d455 a13c cd0b 32c0 5837 b53c bf9b 1e3f
00000270: a4d8 963d ae6d 38bf 5608 7bbf 8833 233f
00000280: 08e0 46bd a021 45bb 044e 9ebc f02e ebbb
00000290: f19d 2040 28b5 693e 0d0e 8a3e 34b6 5c3d
000002a0: ea36 9dbd 996d c8bf c0fc 19bc 9c41 68bc
000002b0: a129 c53e 758a 75bd b4a2 cabc 8aba 9dbf
000002c0: abce 61bf 773d c83c 5307 0040 9ab6 c8bc
000002d0: f817 debc 51cb 27c0 f847 18bd 15cc 03bd
000002e0: 8052 513d 00cd 4a3f eba6 143e f403 afbf
000002f0: a0ef 20bb 2d31 9fbf bd0c b6bf c8bf 28bd
00000300: 005c 0f3c 47dc 04c0 70de e03b 7054 473c
00000310: 90ee 86be 07ed c23f ff07 39bd 27fa 023f
00000320: 5145 f5be 48ca f6bf acf0 62bc 40ca 503a
00000330: 49fc 96bf 7487 bfbf 1c35 b6bf 9a18 37bf
00000340: 8490 d43c 2055 3abd e377 15c0 3fe6 29bf
00000350: f560 3e3d 4013 e23c b195 21c0 3a99 0240
00000360: 9ed5 c2bc e495 5e3d b30f 5840 9851 203d
00000370: 9c5f 3e3f 2520 2a3f 6045 7ebb f5f7 a6bf
00000380: 550b b9bd 3d8c a03d 8bb8 41bf 966e 4f3e
00000390: 9078 f83b 4f76 a23f 7de2 983f 93c9 c33f
000003a0: 4a84 7a3e 3414 5ebe 28d1 dcbd a3e3 003d
000003b0: 723a 493d ffee 67bd 3434 b0bc a7e6 0e3d
000003c0: 4094 46bb a53d 8940 a71c 9fbd 9e69 3c3f
000003d0: 56c6 2fbf 7ff8 413f 4b81 173f 66ac 303f
000003e0: 5203 ef3f 6f93 0340 d85e 5cbd a07d aeba
000003f0: 7a8f 7b3d b48e ff3f 8f96 43be f8ab 92bf

fc2.bias f4 [3]
0.11685898 -0.030643776 0.041573316
00000000: c353 ef3d a808 fbbc c848 2a3d

fc1.weight f4 [300, 13]
0.35855874 -0.117125735 0.5227945 -0.13596804 0.7946368 0.47426772 0.13417302 0.06555975
-0.68598557 0.06925404 -0.6475637 -0.4172686 0.19201589 -0.111284226 -0.036538433 -0.21622516
-0.12353884 -0.048415475 0.12429642 -0.22605973 0.13318068 -0.37645578 -0.3078941 -0.14296095
0.0307471 0.12333253 0.33101234 -0.5237008 -0.5169657 0.36780354 0.07492105 0.5837261
-0.27985182 0.50937754 0.16854128 -0.16463223 -0.014923744 -0.33283275 0.2598782 -0.44124943
-0.37320146 0.6498008 0.0034452123 0.16790058 0.21745701 -0.02358612 0.2030088 -0.5492525
0.13870129 -0.140897 -0.15497851 -0.06157896 0.267609 0.6217505 -0.022643946 0.24601628
0.51345325 0.01824374 -0.7885156 -0.80794317 -0.26805484 -0.7692727 -0.030041538 -0.31245524
0.24037907 -0.52650565 0.35337576 0.05076187 -0.53754705 0.6985641 -0.07031354 -0.37910375
-0.38113654 -0.63023764 -0.31564355 -0.36849347 -0.24835782 0.26028404 -0.44301656 0.6457993
0.039369963 -0.0929 -0.08275925 -0.27760807 -0.18549536 -0.49441436 -0.48364985 -0.36099783
0.13279097 -0.2074828 0.023893297 0.77848655 -0.12623416 -0.054765414 -0.04487311 -0.37804246
0.57660884 -0.6264666 0.25147092 0.040387627 -0.035713725 0.60900724 -0.41116282 0.007894605
0.15641673 -0.14390035 0.16082112 -0.11057819 0.22247185 -0.11865734 -0.059580486 -0.2884003
0.13883114 -0.34072432 0.23104745 -0.074562564 0.07948172 -0.25083393 0.53606373 0.10397924
-0.48403373 -0.32676262 0.56399643 -0.35500598 -0.36602765 -0.79311913 -0.1888942 0.10252579
-2.0865731 0.27260002 0.27437648 0.071040876 -0.25036213 -0.0030617993 -0.22249824 -0.022108838
-0.5633397 -0.0016660332 -0.51178277 -0.430986 -0.15668632 -0.43742588 -0.16667777 0.12347594
-0.41295663 -0.079300664 0.0843433 0.17447266 -0.17016827 -0.33315405 0.4066794 -0.35339263
-0.5259345 -0.4558733 -0.15580265 0.15678674 -0.87427914 0.5639712 -0.028884595 -0.4234175
0.48036876 0.38789338 -0.11783118 -0.68891233 -0.04510675 -0.12794892 -0.52106494 -0.38080284
0.04806915 0.2351174 -0.06706694 -0.013398458 -0.16580497 0.15188873 -0.02512698 -0.08505532
0.055628076 0.2233538 -0.18682994 -0.109972365 -0.014136481 -0.09880744 0.3068535 -0.21102545
0.1437965 -0.40795767 -0.42135903 -0.13799162 -0.25477344 -0.23720317 -0.92711884 -0.14718582
0.95924515 -0.46492797 0.112394065 0.05591753 0.47748336 0.19733745 -0.501531 0.65418077
0.5619438 0.07653885 -0.4644433 -0.35084844 0.268033 -0.5035435 -1.4325784 -0.25843093
0.551101 0.16135715 0.42524138 0.60008013 0.601303 -0.3832505 -0.3248562 -0.031738624
-0.54778904 -0.17808431 -0.601338 0.020624325 0.16132808 -0.15241644 0.20504908 0.040085264
-0.22265452 -0.3110629 -0.26014906 -0.25067514 -0.06938081 -0.3137912 -0.20600705 0.2694488
-0.17257014 0.16521561 0.0063462895 0.51804864 0.14709318 -0.44016063 0.2503728 -0.2604337
0.052696433 -0.1061958 -0.56838894 -0.10329456 -0.5569274 -0.10926261 -0.2098249 0.36741707
-0.14426896 0.021027954 -0.19372335 0.18238775 -0.20754154 -0.18972443 0.07778229 -0.65316886
00000000: 0395 b73e 9edf efbd dcd5 053f 353b 0bbe
00000010: 516d 4b3f 38d3 f23e a764 093e 3144 863d
00000020: c09c 2fbf 10d5 8d3d bcc6 25bf 3ba4 d5be
00000030: d09f 443e fce8 e3bd 53a9 15bd 216a 5dbe
00000040: ee01 fdbd 4e4f 46bd 1f8f fe3d 347c 67be
00000050: 8460 083e d0be c0be 4ca4 9dbe 5b64 12be
00000060: 58e1 fb3c c495 fc3d 737a a93e 4111 06bf
00000070: dd57 04bf bf50 bc3e 3570 993d 136f 153f
00000080: bd48 8fbe 9166 023f 1696 2c3e 5a95 28be
00000090: b882 74bc 0e69 aabe c10e 853e 72eb e1be
000000a0: 4314 bfbe 5859 263f 12c9 613b 21ee 2b3e
000000b0: 0dad 5e3e ae37 c1bc 8ae1 4f3e d09b 0cbf
000000c0: b607 0e3e 4e47 10be b0b2 1ebe 383a 7cbd
000000d0: 0c04 893e 0a2b 1f3f cc7f b9bc b1eb 7b3e
000000e0: ac71 033f e573 953c 29dc 49bf 5dd5 4ebf
000000f0: 7c3e 89be 0eef 44bf ac19 f6bc 22fa 9fbe
00000100: ee25 763e 13c9 06bf abed b43e aeeb 4f3d
00000110: af9c 09bf 19d5 323f 8c00 90bd e319 c2be
00000120: 5424 c3be 4157 21bf 089c a1be 2dab bcbe
00000130: 8351 7ebe f343 853e 11d3 e2be 1a53 253f
00000140: 6642 213d 5b42 bebd af7d a9bd a522 8ebe
00000150: 7ff2 3dbe e123 fdbe f4a0 f7be b5d4 b8be
00000160: 5bfa 073e 5f76 54be e0bb c33c e54a 473f
00000170: 8743 01be b351 60bd decc 37bd c88e c1be
00000180: a39c 133f 1d60 20bf ccc0 803e 7f6d 253d
00000190: 8e48 12bd e6e7 1b3f ef83 d2be 6058 013c
000001a0: b52b 203e 9d5a 13be 4bae 243e d176 e2bd
000001b0: a9cf 633e 9f02 f3bd ab0a 74bd 34a9 93be
000001c0: c029 0e3e 6b73 aebe b497 6c3e 42b4 98bd
000001d0: 50c7 a23d 4e6d 80be 793b 093f 11f3 d43d
000001e0: 45d3 f7be 6e4d a7be 1262 103f 58c3 b5be
000001f0: fa67 bbbe db09 4bbf 7b6d 41be 0bf9 d13d
00000200: 6a8a 05c0 3b92 8b3e 137b 8c3e e17d 913d
00000210: 772f 80be 78a8 48bb 94d6 63be 981d b5bc
00000220: 0837 10bf cc5e daba 3204 03bf 32aa dcbe
00000230: 6172 20be 49f6 dfbe 94ad 2abe f4e0 fc3d
00000240: 0d6f d3be 6368 a2bd 2ebc ac3d f6a8 323e
00000250: 9740 2ebe 2b93 aabe 4838 d03e e1ef b4be
00000260: a5a3 06bf 3a68 e9be bb8a 1fbe b48c 203e
00000270: c2d0 5fbf 6b60 103f 639f ecbc 2eca d8be
00000280: e5f2 f53e f699 c63e 7951 f1bd 8f5c 30bf
00000290: dbc1 38bd 0b05 03be 8364 05bf 97f8 c2be
000002a0: 28e4 443d 9ec2 703e 645a 89bd 3585 5bbc
000002b0: c7c8 29be b888 1b3e 19d7 cdbc 7c31 aebd
000002c0: 44da 633d dcb6 643e 5950 3fbe 3139 e1bd
000002d0: b39c 67bc 8e5b cabd e71b 9d3e 0e17 58be
000002e0: 643f 133e d4df d0be 5fbc d7be ad4d 0dbe
000002f0: aa71 82be 63e5 72be a957 6dbf e1b7 16be
00000300: 1791 753f 0a0b eebe dc2e e63d c809 653d
00000310: b378 f43e d412 4a3e 5664 00bf 6478 273f
00000320: 8ddb 0f3f 67c0 9c3d 83cb edbe 68a2 b3be
00000330: 9f3b 893e 3ae8 00bf bb5e b7bf 0f51 84be
00000340: f514 0d3f cf3a 253e 3db9 d93e da9e 193f
00000350: feee 193f 6939 c4be 8d53 a6be 5c00 02bd
00000360: e73b 0cbf bc5b 36be 4af1 19bf 58f4 a83c
00000370: 3033 253e 0e13 1cbe 63f8 513e 7230 243d
00000380: 8cff 63be a343 9fbe 4232 85be 7e58 80be
00000390: 8717 8ebd 3da9 a0be 83f3 52be 31f5 893e
000003a0: 3ab6 30be 482e 293e 89f4 cf3b d69e 043f
000003b0: 989f 163e bc5c e1be dd30 803e 9157 85be
000003c0: 37d8 573d 2f7d d9bd f081 11bf 198c d3bd
000003d0: cb92 0ebf 13c5 dfbd 57dc 56be 171e bc3e
000003e0: 3ebb 13be d142 ac3c 6a5f 46be dbc3 3a3e
000003f0: c585 54be 1f47 42be 524c 9f3d 1336 27bf

fc1.bias f4 [300]
-0.02720552 -0.1853636 -0.09974625 -0.14552733 -0.112468384 -0.5706069 -0.14148656 0.04944235
-0.32104552 -0.40838745 -0.28972414 -0.19474654 -0.06815561 -0.27414432 -0.15270463 -0.15514487
-0.046110466 -0.46270794 -0.5419915 -0.214258 -0.29560965 -0.57384 -0.49815243 -0.2210383
-0.20677602 -0.07999143 -0.35110494 -0.32399473 -0.31805038 -0.38586444 -0.3614788 -0.16306175
-0.5914013 -0.2186881 -0.18280414 -0.33762872 -0.32035545 -0.15516795 -0.18526949 -0.19891582
-0.18205924 -0.383541 -0.26086396 -0.4259444 -0.40290666 0.07858683 -0.44064304 -0.22167245
-0.22695768 -0.531117 -0.37027836 -0.13775627 -0.17839663 -0.2698863 -0.062376525 -0.103225276
-0.253824 0.37090454 -0.04793758 -0.18002439 -0.10502185 -0.10791027 -0.20524795 -0.13596785
-0.2839296 -0.24847092 -0.46903813 -0.27396846 -0.5811699 -0.01218133 -0.34674594 -0.19834304
-0.0470608 -0.58128506 -0.4968137 -0.18740177 -0.5130786 -0.37130234 -0.3959402 -0.00945954
-0.4373698 -0.27901003 -0.2527781 -0.24437352 0.27991223 -0.0571222 -0.55646855 -0.23175974
-0.24732915 -0.03288535 -0.008210171 -0.25601184 -0.28136525 -0.5413135 -0.25441283 -0.3724042
-0.17697895 -0.23494215 0.017971506 -0.33046222 0.075006634 -0.121029586 -0.55921066 -0.47762966
-0.5237681 -0.4196251 -0.27185038 -0.4962254 -0.15569636 0.049879402 -0.44552964 -0.24481072
-0.09217141 -0.18032528 -0.00013331512 -0.24797148 -0.28692314 -0.05949923 -0.45755756 -0.19879001
-0.38041624 -0.3585068 -0.1294536 0.011295262 -0.18934523 -0.17451185 0.07179447 -0.29345444
-0.41795304 -0.46804374 0.027495215 -0.29403675 -0.09981911 -0.32536918 -0.2385221 -0.035907537
-0.02977164 0.013736854 0.17971075 -0.13414916 -0.32588422 -0.1531382 -0.1266606 -0.39003214
-0.25263005 -0.31286895 -0.08510546 -0.20873868 -0.088678755 -0.060099263 -0.2196846 -0.19357252
-0.32589352 -0.41383058 -0.18782553 0.2798144 -0.45417252 0.20469417 -0.3110873 -0.17270693
-0.2077794 -0.134164 -0.15498988 -0.50299305 -0.17680046 -0.27252603 -0.39891183 -0.4202629
-0.37654188 -0.18137546 -0.24197856 -0.12361798 0.1093501 -0.44139087 -0.6350519 0.01881114
-0.17660688 -0.32244027 -0.36237162 -0.4265369 -0.366226 -0.64960706 -0.20011431 -0.2957723
-0.22650228 -0.14552785 -0.30448103 -0.37104502 -0.42453367 -0.26050702 -0.17756043 -0.31064028
-0.45595032 -0.40396675 -0.2973299 -0.3009647 -0.30448404 -0.08545483 -0.20360641 -0.53430164
-0.38696092 0.05390368 -0.2583216 -0.52736616 -0.2550645 -0.07308151 -0.3089213 0.061182074
-0.33380613 -0.24491277 -0.21446966 -0.39088762 0.0454458 -0.45884374 -0.044155534 -0.15187615
-0.3866072 -0.26477706 -0.33369115 0.19391298 0.08341247 -0.05406724 -0.10844509 -0.26915896
-0.36053008 -0.109985925 -0.18947552 -0.21539159 0.019000744 -0.48816395 -0.43523446 -0.31350696
-0.0132998265 -0.45178986 -0.14205621 -0.41380638 -0.20205508 -0.008416876 -0.41183087 -0.41888332
-0.35619748 -0.1341352 0.01939541 -0.059533805 -0.16670579 -0.15088947 -0.13214155 -0.2973973
-0.17064734 -0.010862179 0.112045 -0.1665733 -0.08982443 -0.023125682 -0.11463126 -0.12760349
00000000: 1cde debc f5cf 3dbe c347 ccbd 1e05 15be
00000010: d355 e6bd 4b13 12bf dae1 10be 1084 4a3d
00000020: 1460 a4be 2918 d1be b956 94be a36b 47be
00000030: 2b95 8bbd a55c 8cbe 9a5e 1cbe 4cde 1ebe
00000040: 54de 3cbd 0ee8 ecbe f4bf 0abf 7366 5bbe
00000050: 265a 97be 2ee7 12bf d60d ffbe dd57 62be
00000060: 18bd 53be 8cd2 a3bd 07c4 b3be a3e2 a5be
00000070: 80d7 a2be 0690 c5be c013 b9be a9f9 26be
00000080: 1366 17bf c6ef 5fbe 0231 3bbe acdd acbe
00000090: a105 a4be 59e4 1ebe 49b7 3dbe 97b0 4bbe
000000a0: bd6d 3abe 7c5f c4be f68f 85be 6215 dabe
000000b0: c849 cebe 22f2 a03d f79b e1be 1afe 62be
000000c0: 9867 68be 49f7 07bf 2095 bdbe fb0f 0dbe
000000d0: 9bad 36be 8a2e 8abe 877e 7fbd c667 d3bd
000000e0: 38f5 81be 33e7 bd3e 325a 44bd 5058 38be
000000f0: b215 d7bd 0f00 ddbd 852c 52be 283b 0bbe
00000100: 385f 91be 296f 7ebe c425 f0be 9845 8cbe
00000110: 8dc7 14bf 3394 47bc af88 b1be 701a 4bbe
00000120: d3c2 40bd 19cf 14bf 5e5e febe 40e6 3fbe
00000130: 1e59 03bf 571b bebe adb8 cabe 30fc 1abc
00000140: efee dfbe 67da 8ebe 226c 81be 0d3d 7abe
00000150: a850 8f3e f8f8 69bd b974 0ebf 6d52 6dbe
00000160: da43 7dbe cab2 06bd f483 06bc fc13 83be
00000170: 1b0f 90be 8693 0abf 6642 82be c3ab bebe
00000180: f839 35be ad94 70be fb38 933c 5832 a9be
00000190: 149d 993d 5cde f7bd 6e28 0fbf e08b f4be
000001a0: ab15 06bf 1ad9 d6be f92f 8bbe 4111 febe
000001b0: de6e 1fbe 584e 4c3d 761c e4be a9af 7abe
000001c0: 5dc4 bcbd 31a7 38be 81ca 0bb9 3cec 7dbe
000001d0: 97e7 92be 77b5 73bd fc44 eabe 9c8f 4bbe
000001e0: ebc5 c2be 348e b7be 7c8f 04be c30f 393c
000001f0: b7e3 41be 3cb3 32be fb08 933d a93f 96be
00000200: f1fd d5be 6ea3 efbe a53d e13c fc8b 96be
00000210: f66d ccbd ca96 a6be 233f 74be c813 13bd
00000220: a8e3 f3bc 8b10 613c 1806 383e 665e 09be
00000230: 4cda a6be 43d0 1cbe 51b3 01be 4bb2 c7be
00000240: ba58 81be 5c30 a0be c54b aebd 98bf 55be
00000250: 359d b5bd a52a 76bd 00f5 60be e037 46be
00000260: 84db a6be 9ae1 d3be 5655 40be d543 8f3e
00000270: 4d89 e8be 599b 513e d646 9fbe 16da 30be
00000280: 1fc4 54be 4a62 09be abb5 1ebe 27c4 00bf
00000290: 2e0b 35be 8888 8bbe 2c3e ccbe b32c d7be
000002a0: 19ca c0be 7dba 39be 3ac9 77be 6c2b fdbd
000002b0: f2f2 df3d fcfd e1be c392 22bf d219 9a3c
000002c0: 6fd8 34be e416 a5be c688 b9be 0b63 dabe
000002d0: f981 bbbe a64c 26bf c4ea 4cbe 786f 97be
000002e0: 37f0 67be 4105 15be f0e4 9bbe 9df9 bdbe
000002f0: 7a5c d9be 2d61 85be 67d2 35be 3e0c 9fbe
00000300: 5272 e9be bbd4 cebe a03b 98be 0c18 9abe
00000310: 55e5 9bbe f102 afbd 337e 50be fec7 08bf
00000320: be1f c6be 1bca 5c3d bb42 84be 7801 07bf
00000330: d097 82be c2ab 95bd ef2a 9ebe 0e9a 7a3d
00000340: a3e8 aabe 6aca 7abe ef9d 5bbe 6c22 c8be
00000350: 6025 3a3d 91ed eabe 6fdc 34bd 6c85 1bbe
00000360: 61f1 c5be dc90 87be 91d9 aabe 2091 463e
00000370: 28d4 aa3d 9c75 5dbd 7618 debd 34cf 89be
00000380: 6697 b8be 4d40 e1bd df05 42be 9d8f 5cbe
00000390: 73a7 9b3c a0f0 f9be 0dd7 debe fc83 a0be
000003a0: 84e7 59bc 0051 e7be 2f77 11be 6ede d3be
000003b0: 87e7 4ebe f0e6 09bc 7fdb d2be e077 d6be
000003c0: 845f b6be bd5a 09be 1fe3 9e3c b8d9 73bd
000003d0: ecb4 2abe c582 1abe 1d50 07be 7544 98be
000003e0: 2dbe 2ebe 48f7 31bc d977 e53d 3192 2abe
000003f0: dff5 b7bd 1272 bdbc cbc3 eabd 7daa 02be
